RL-Ridesharing-master/RL-Ridesharing-master/dqn_model_num_cars_2_num_passengers_7_num_episodes_1000_hidden_size_100.pth (torch, 227727 bytes, 4 tensors)

fc1.weight f4 [100, 160]
000000 02 f4 ab 3d 2e fb c4 3e 9f b5 0c bf 2f 3c dd be
       0.0839615 0.38472885 -0.5496463 -0.4320998
000010 1c ba 26 bf 4a 4b 1b bf 6b 2c 13 bf ec db 1e bf
       -0.6512773 -0.60661757 -0.5748965 -0.62054324
000020 95 7d 0d bf 57 8c 2e bf 77 74 23 bf 32 3f db be
       -0.5526975 -0.6818289 -0.63849586 -0.42821652
000030 a9 32 10 bf a1 cb 11 bf 8a 49 d6 be c1 35 b4 be
       -0.563273 -0.5695134 -0.4185298 -0.3519726
000040 d6 6f a7 be d8 e6 d3 be 21 44 9a be 09 a0 82 be
       -0.32702512 -0.41387057 -0.30130103 -0.25512722
000050 58 fd 98 be f6 89 2a be cd 7a 59 be 00 3c 84 be
       -0.29880786 -0.1665419 -0.21238251 -0.25827026
000060 79 b9 68 be ce 20 91 be 95 f5 8a be ae 0e 61 be
       -0.22727002 -0.2834534 -0.2714049 -0.21978256
000070 54 c9 07 be ca f9 8a be 36 38 6f be f4 f9 78 be
       -0.13260394 -0.271437 -0.23361287 -0.243141
000080 a5 c3 52 be 17 7e ba be f1 c3 cc bd 37 2d f2 bd
       -0.20582445 -0.36424324 -0.0999831 -0.1182503
000090 9c f9 44 be 72 89 48 be 4b 71 2a be fe c8 b8 bd
       -0.19235843 -0.19583681 -0.1664478 -0.09022711
0000a0 16 e7 7f 3e 63 6d 32 bf d7 02 34 bf 58 42 42 bf
       0.24990496 -0.6969816 -0.70316833 -0.7588248
0000b0 8c 46 1d bf d6 fc 0f bf 08 4e 10 bf c0 e2 bb be
       -0.6143577 -0.5624517 -0.56369066 -0.36696434
0000c0 ed 00 ae be 5f f4 b9 be 2c 53 ac be 7f 34 89 be
       -0.3398508 -0.36319253 -0.33657205 -0.26797864
0000d0 d3 c8 a9 be 6f 71 98 be 6a a6 88 be 86 21 61 be
       -0.3316103 -0.29774043 -0.26689464 -0.21985444
0000e0 12 77 34 be 4d a5 2a be d6 ff bf bd 74 e7 44 be
       -0.17623547 -0.1666462 -0.09374969 -0.19228917
0000f0 75 0a 21 bb 40 d8 42 3e a6 72 ab 3e fe d1 be bd
       -0.0024572883 0.19027805 0.33485907 -0.093173966
000100 e9 28 8d 3e 05 bd 8d 3c 6d c0 3a 3e 96 3e b2 3e
       0.27570274 0.017302046 0.18237467 0.34813374
000110 79 53 70 3e 53 9c 8c 3d 5c 49 f4 3d 6a 11 41 3e
       0.23469342 0.06865754 0.11928055 0.18854299
000120 c4 dd b9 3e ad fe 97 bd 4d a8 14 3e c3 e3 96 3e
       0.36302006 -0.074216224 0.14517327 0.29470643
000130 f2 16 84 bd 4e a4 30 3e da 3d 4d bd 26 a7 82 3e
       -0.06449689 0.17250177 -0.050107814 0.2551815
000140 25 9f 83 3e 51 36 48 3c bb 8d 08 3e ba e8 8c 3d
       0.25707355 0.012219981 0.13335316 0.068803266
000150 33 54 76 3e 6a e7 92 3e 3f 0b bd bd 9b f0 15 be
       0.24055557 0.2869218 -0.09230661 -0.14642565
000160 85 46 23 3d 78 86 30 3e f7 a7 f7 bc 51 e1 16 be
       0.039862175 0.17238796 -0.030231459 -0.14734389
000170 fd 2e 72 3e be 7f c4 3e be a8 a0 bd 96 8a a7 3e
       0.23650737 0.3837871 -0.07844685 0.3272292
000180 ef 84 21 be 4c f7 c9 3d ef 59 d7 bd cc 25 09 be
       -0.15773366 0.09861621 -0.105152 -0.13393325
000190 a6 d7 61 3c 37 90 05 3d 4f 9f 98 3e ff b5 61 be
       0.013784325 0.032608237 0.29809043 -0.22042082
0001a0 85 46 0c be 54 fd 99 bd 48 df f3 bd 54 c0 0c 3e
       -0.13698776 -0.07519022 -0.11907822 0.13745242
0001b0 03 47 28 be 27 2f a6 be 43 4a 24 3e dc 7b 5f bd
       -0.16433339 -0.3245785 0.16043954 -0.05456148
0001c0 42 18 4a 3e e1 7d 2b 3e 30 48 53 be 96 ee f2 3c
       0.19735816 0.16747238 -0.20633006 0.029654782
0001d0 cf ad 7f 3e cd ae 5e be d0 8d 1a 3d d1 e3 33 3d
       0.24968646 -0.21746369 0.0377329 0.043918435
0001e0 ae f1 51 be 9c 75 3b 3c 9d 48 1d 3c f8 1d 1f 3c
       -0.2050235 0.0114416145 0.009599832 0.009711735
0001f0 02 af c5 3c 18 e2 5a bd ab 26 b0 3e d9 5f f2 3b
       0.024131302 -0.053438276 0.344045 0.00739668
000200 2a c6 87 bd bf 6a c4 bd 24 e2 6b be 81 7c 0f be
       -0.06629594 -0.09590673 -0.23035485 -0.14012338
000210 00 0d b8 3e 49 23 8a 3e 65 5c 85 3e 2c 69 70 3e
       0.35947418 0.26980045 0.26047054 0.2347762
000220 a0 73 14 bf eb 31 c1 be d5 db c2 3d d9 a1 83 be
       -0.5798893 -0.37733397 0.09514586 -0.25709417
000230 9d bb 38 3e ef 8d 36 3e 9e 05 81 3e 19 a8 60 3e
       0.18040319 0.17827581 0.25199598 0.21939124
000240 f5 75 6b 3e 73 e6 37 3e 8c 99 f3 3d a0 33 95 3d
       0.22994216 0.17959003 0.11894521 0.07285237
000250 c1 5a c3 3d 10 dd b3 3d 51 1e b3 3c 92 f5 57 3c
       0.09538794 0.08782399 0.021865042 0.013181107
000260 31 6f 0d 3d 36 1b 02 be 48 13 ce bb 72 99 d2 3d
       0.03452987 -0.12705693 -0.0062889196 0.102831736
000270 af c3 8f 3e 44 e4 6f 3e 32 03 97 3e 02 17 22 be
       0.28078982 0.2342692 0.29494625 -0.1582909
000280 c1 71 3d bc ef 2f 12 bd 57 cb d1 3d ca f7 00 3d
       -0.011562766 -0.035690244 0.10243862 0.03148631
000290 c9 f0 80 bc e4 4d 08 3d ac 41 26 3c 7b 27 39 3d
       -0.015739815 0.033277407 0.010147493 0.045203667
0002a0 a4 6c 05 3e 80 1a eb 3d a1 a0 79 bd 4a 3b dd bc
       0.13029724 0.11479664 -0.060944203 -0.02700581
0002b0 74 f4 35 bc f1 f2 18 bd 71 86 69 bd fa a9 b5 bd
       -0.011105645 -0.037341062 -0.05701298 -0.08870311
0002c0 d7 b4 0b bd a7 6f 38 bd 76 e9 89 bc 48 3e 63 bd
       -0.03410801 -0.045028355 -0.016834956 -0.055479318
0002d0 d2 27 89 bd 4f 61 c6 bd 4f b8 47 3d c5 e7 23 3d
       -0.06697048 -0.09686529 0.048759755 0.040015955
0002e0 aa 46 a1 bd aa 94 67 bd 03 84 53 3d fe 5b b9 bd
       -0.07874806 -0.05653826 0.051639568 -0.09050749
0002f0 bc e3 0c 3d ac bc ce bc 51 7a 86 3d 86 43 e9 bc
       0.034396872 -0.02523645 0.06566299 -0.02847458
000300 f0 8a fc 3b cf d8 05 bd 10 46 fe bc 5a 29 a8 bc
       0.0077069923 -0.032677468 -0.031039268 -0.02052753
000310 80 64 21 bc f0 31 5f bd 72 f7 3e 3d aa 51 63 3d
       -0.009850621 -0.054490983 0.0466227 0.055497803
000320 ff 03 e5 3d 6d b5 cc 3d aa 7a f2 3c 11 2b ad bc
       0.11182403 0.09995542 0.029599506 -0.0211387
000330 26 c2 4f 3d 4c ce 1e bb 47 4f 91 bd d6 57 4b bd
       0.050722264 -0.002423185 -0.07095199 -0.049644314
000340 23 c3 b0 bd 49 de b2 bc 3d cf ce bc 25 65 ab bb
       -0.086309694 -0.02183451 -0.025245303 -0.005230563
000350 d5 61 81 bb b1 84 1c bd 81 f8 0f bd 91 7c 94 3d
       -0.00394843 -0.038212482 -0.0351491 0.07250322
000360 00 47 16 bb 75 1d 94 bd dc 2c 9a 3c 68 20 80 bc
       -0.0022930503 -0.07232181 0.018820219 -0.015640453
000370 15 8f 42 3d 98 dc 06 3c 9a f4 69 3b cf 0c 01 bd
       0.047499735 0.008231305 0.0035698772 -0.031506356
000380 ce 9b 9b bc 40 7f 40 3c 93 f9 ad bc 45 54 fd bc
       -0.018995192 0.011749089 -0.02123717 -0.030923972
000390 c9 eb 07 3d cc 2e 8c bd b9 05 5d 3d 44 a3 98 bd
       0.033183847 -0.06844863 0.053960536 -0.074530154
0003a0 9e 66 e3 3b 9f c4 2b bd 1d e4 8b ba fb 83 bb ba
       0.006939723 -0.04193556 -0.0010672841 -0.0014306301
0003b0 88 c7 1e bd 7e 6c 52 3c 29 89 cd 3c 2e d1 72 bd
       -0.038764507 0.012843249 0.025089817 -0.05928152
0003c0 cc 83 91 bc 6b d1 36 bd f5 fc a7 bd 68 56 66 bd
       -0.017763041 -0.04463331 -0.082025446 -0.056234747
0003d0 05 90 89 3c 6d 19 9b bc 35 97 ef bc 55 d1 91 bc
       0.016792307 -0.018933022 -0.029246906 -0.017800013
0003e0 60 87 1a bd 49 7c 3e bd 3a 29 96 bd 55 d8 4e 3b
       -0.03772676 -0.046505246 -0.07332082 0.003156205
0003f0 c6 25 58 3c 3f f8 0c bd 1c 3d 2a 3d 3f 93 1b bc
       0.0131926 -0.034416433 0.041562185 -0.009495555

fc1.bias f4 [100]
000000 5b fd 4e 3e 9d 49 09 bd 34 13 f8 3e 25 a6 57 3e
       0.20213835 -0.03351747 0.4845215 0.21059473
000010 30 ad 94 3e 4e 8a 97 3e 83 17 64 3e 5c ea bf 3e
       0.29038382 0.29597706 0.22274594 0.3748349
000020 e5 61 66 3e 25 29 52 bc c4 2a 81 3e 80 f5 4d 3e
       0.22498281 -0.012827192 0.2522794 0.20113182
000030 f0 dd ab 3e 7c d6 b5 3e 3e 2b 77 3e 73 9a a1 3e
       0.33567762 0.355152 0.2413759 0.31563148
000040 75 61 22 3f e7 01 ca 3e 8f 8f be 3e a6 ca 8f 3e
       0.6342996 0.39454576 0.37218902 0.28084296
000050 d0 d1 8e 3e c8 19 92 3a 4e cc 85 3e 69 09 82 3c
       0.2789445 0.00111466 0.26132435 0.015873628
000060 78 62 a5 3e 6d 50 d4 3e 4b 6b 3c 3e 92 2e 8c 3e
       0.32301688 0.4146761 0.18400304 0.2737928
000070 1d 16 86 3e 49 bb ba 3e c6 ee 0b bd 56 77 9c 3e
       0.26188746 0.36471012 -0.03416326 0.30559796
000080 78 b1 b6 3e 6b 66 8e 3e 29 d1 cd 3e fa b4 98 3e
       0.35682273 0.27812514 0.4019864 0.29825574
000090 fc 59 9d 3e 30 e8 8a 3e 8a 0d 94 3e 9b cd b8 3e
       0.30732715 0.2713027 0.2891658 0.36094365
0000a0 43 1c 95 3e 2a 0d c4 3e 4d 22 99 3e 63 bd ed 3e
       0.29123124 0.38291293 0.29908982 0.46433553
0000b0 9a 60 94 3e 0c a3 69 3e d3 37 95 3e f3 39 a4 3e
       0.2897995 0.22816104 0.29144153 0.32075462
0000c0 f8 a5 6a 3e b5 6e da 3e e0 55 bd 3e 05 72 ac 3e
       0.22914875 0.42662588 0.3697958 0.3368074
0000d0 20 40 87 3e f8 9a d7 3e 02 54 80 3e b3 43 ad 3e
       0.2641611 0.4211042 0.25064093 0.33840713
0000e0 f2 72 93 3e a8 8e b2 3e c0 9c a2 3e 66 c4 80 3e
       0.28798634 0.34874463 0.31760216 0.2514984
0000f0 b1 a4 7e 3e 14 82 a2 3e e3 b0 a5 3e e7 82 b5 3e
       0.24867512 0.31739867 0.32361516 0.35451433
000100 05 3e 9b 3e 32 7d a9 3e 5f 96 a2 3e 65 6b 57 3e
       0.30320755 0.3310333 0.3175535 0.21037062
000110 c0 90 db 3a 18 96 94 3e d9 87 86 3e b4 83 8c 3e
       0.0016751513 0.29020762 0.2627552 0.27444232
000120 17 02 8a 3e 40 77 85 3e 12 f1 9f 3e f2 91 bc 3e
       0.2695472 0.26067543 0.3123861 0.36830097
000130 b0 1b cb 3e 98 40 af 3e e1 21 ad 3e f8 c7 cc 3e
       0.3966956 0.3422897 0.3381491 0.39996314
000140 88 1e dd 3e c5 98 ad 3e 16 dd c1 3e 4b 1f 8d 3e
       0.43187356 0.33905616 0.37863988 0.27562937
000150 e9 a9 f4 3e e0 79 86 3e e2 9e d8 3e cf d9 11 3e
       0.4778588 0.26264858 0.42308718 0.14243244
000160 74 b6 e5 3e 7d e4 c5 3e 27 84 8c 3e 8b e9 a6 bd
       0.44865763 0.38650885 0.27444574 -0.081500135
000170 dd 67 b3 3e d3 8f b2 3e 5d 38 b7 3e c1 77 94 3e
       0.3504018 0.34875354 0.3578519 0.28997615
000180 07 df a2 3e 9f 45 5b 3e 2d 55 77 3e ff cd a1 3e
       0.3181078 0.21413277 0.24153586 0.31602475

fc2.weight f4 [400, 100]
000000 24 c9 33 3d 56 0a de bd 2e fa 0e be 2e b6 11 3d
       0.043892995 -0.10841815 -0.13962623 0.03557413
000010 f4 33 d9 bd dc d7 13 3c 45 97 a3 be ef 8e a2 bd
       -0.106056124 0.009023633 -0.31951347 -0.07937419
000020 86 ba d2 3d 8f e6 6e 3c 53 6e d9 bb 3b f1 c8 3d
       0.10289483 0.014581337 -0.006635466 0.09811636
000030 8a 67 e5 3d c9 f5 be bd 60 a1 ef 3c 60 c2 19 bb
       0.11201389 -0.093242235 0.029251754 -0.0023461804
000040 0a 1b 43 be 3a dd 93 3d c3 58 a3 bc bc fa 93 3d
       -0.19053283 0.0721993 -0.019939786 0.07225558
000050 14 11 14 bc da 8e 95 bd 1f bd f3 bc be e8 83 bc
       -0.009037275 -0.073026374 -0.029753266 -0.016102191
000060 c8 12 d8 bc 38 a6 cc 3d 6b f8 a0 3d 40 d2 04 be
       -0.026376143 0.09992641 0.07859882 -0.12970829
000070 a8 ae b5 bd fa 8a 07 bb 37 52 06 3e 80 fb d5 bc
       -0.08871204 -0.0020682202 0.131173 -0.026120901
000080 59 81 ee 3c d9 e2 b5 3b c6 ab a2 3d fa 52 b3 bd
       0.029114412 0.005550724 0.079429194 -0.08756061
000090 69 7f cb bd f4 50 03 3e 7d 68 9b bd 6b 1b a1 bd
       -0.09936411 0.1282385 -0.07588289 -0.07866558
0000a0 81 1d ed 3d 50 6b 58 bc 22 c4 3a bb 10 8e 9f bd
       0.11577893 -0.013209179 -0.0028498252 -0.07790768
0000b0 21 a3 57 3d 72 eb 8c bd 7f 3c 9a 3a 2f 49 c1 3d
       0.052645806 -0.06880845 0.0011767297 0.09437787
0000c0 27 e9 29 3c 19 c6 69 bd ae 52 e4 bd 03 ff 98 bd
       0.010370529 -0.057073686 -0.111485824 -0.074705146
0000d0 59 56 f3 3c c0 0b 57 bd 11 06 d0 3d b4 72 ea 3c
       0.02970426 -0.05250144 0.10157407 0.028619148
0000e0 64 5e 04 3c 6d 1a 43 3d 62 fc 11 3d d4 73 82 3c
       0.008079145 0.047632623 0.03564108 0.015924372
0000f0 3c 98 2c bd a4 68 f0 bd f9 8d f9 bd c2 c9 dd bd
       -0.04213737 -0.117387086 -0.12185282 -0.10829498
000100 ec df 8b 3d 3d 7a bd bd fe b6 73 bb 52 05 19 bd
       0.06829819 -0.09251831 -0.003718793 -0.03735859
000110 4c 97 c2 3c a8 53 a7 ba c9 fb 87 bd 21 d0 90 bc
       0.023753785 -0.001276602 -0.06639821 -0.017677369
000120 95 4a 91 3d 67 10 b3 bc 4b 11 8b 3d f8 6d a3 bd
       0.070943035 -0.021858407 0.06790408 -0.07979959
000130 f2 bd 8c 3d 2c 51 cd 3d e0 ea 91 bb 94 04 18 bd
       0.06872167 0.10025248 -0.004453048 -0.03711374
000140 78 b7 86 3d 8f 85 b2 bd 3c e0 8d 3d 90 93 19 be
       0.06577963 -0.087168805 0.06927535 -0.14997697
000150 4e 02 a3 bd 19 e7 e3 3d d2 54 35 3d a7 b5 fe 3d
       -0.07959424 0.11128063 0.044270344 0.12436991
000160 43 58 84 be 9c 5c 3c bd 48 65 d3 bd 15 08 92 bd
       -0.25848588 -0.045986757 -0.10322052 -0.07130448
000170 db 68 10 3e 7c ea 19 be 5e 2d 15 3c cb db e6 3c
       0.14102499 -0.15030855 0.009105055 0.028180977
000180 6e c2 08 be d8 ca fc bd c0 26 e6 bd 5b 1d 86 bd
       -0.13355419 -0.12343377 -0.1123786 -0.06548568
000190 b9 88 08 bd cb 77 97 bc ad d5 1b be c7 4c da bd
       -0.033333514 -0.018489739 -0.1521823 -0.10659175
0001a0 5b 24 6b bd e9 4c 83 bd 8f 4e cc bd 61 28 a7 bc
       -0.05740772 -0.06411154 -0.09975921 -0.020404996
0001b0 ad 4d 0b 3e e4 f3 22 bd 14 8f 57 3c be c3 d6 3c
       0.1360385 -0.039783373 0.013156671 0.026216384
0001c0 56 66 99 bd 81 1d 8d bd 47 1e cf 3d 65 0c 32 3d
       -0.07490222 -0.06890393 0.10113197 0.04346885
0001d0 e6 78 3e be 1e 82 c2 bd 2c 44 d3 3d d0 bc 1d bb
       -0.18600807 -0.09497474 0.10315737 -0.002406884
0001e0 af 94 ed 3d 73 68 b9 bd 11 be 0f 3d 58 c1 9c bd
       0.11600625 -0.09053125 0.03509337 -0.07654065
0001f0 ed 40 16 3d 56 fe cf bb 14 5e e7 bb 9e 94 9f bb
       0.03668301 -0.006347458 -0.0070607755 -0.0048700115
000200 88 4a 66 bd d7 7c 91 3d fd b9 d9 ba dd 2c f4 3a
       -0.056223422 0.071038894 -0.0016611215 0.0018629093
000210 f2 43 29 be 11 59 5f bd af 62 dd 3d c8 90 2f be
       -0.16529825 -0.0545283 0.10809838 -0.17145073
000220 b0 0f 0f be 7c 5b f4 bd 63 a8 2a be d3 e5 1d bd
       -0.13970828 -0.11931512 -0.16665797 -0.038549256
000230 ad 5a 1d 3e 1c bd f8 bd 13 9b 54 bd f9 3b 58 bd
       0.15366621 -0.12145445 -0.051905703 -0.05279157
000240 41 49 2c 3d 97 6a ef 3c 23 7e f2 3c 92 5e 35 3d
       0.042062048 0.02922563 0.029601162 0.044279642
000250 61 9f 82 3d ea 61 06 be f5 9e 18 be 2b 30 ab bd
       0.06378055 -0.13123289 -0.14904387 -0.08358797
000260 5d 8c ba bd c6 6d af bd c5 7f 2d 3c cc b3 2c bd
       -0.091088034 -0.085658595 0.010589545 -0.042163655
000270 22 1a 5b 3b c4 bd 7b 3c ed f7 a2 3c 9e 2f bc 3d
       0.0033432324 0.015365068 0.01989361 0.0918877
000280 2a f9 f7 3d df 9f ea bd 76 86 00 3e 8f cb 2d 3d
       0.12108071 -0.11456274 0.12551293 0.042430457
000290 2c f7 39 bd 36 24 80 bd d3 00 19 bd 62 db cc bd
       -0.045401737 -0.06256907 -0.0373543 -0.100027815
0002a0 d1 8c d3 bd ef 23 13 bd 64 82 27 3e e9 3d 7c bd
       -0.10329593 -0.03592294 0.16358334 -0.06158248
0002b0 7d 17 af 3d d9 0f ff bd 60 02 17 3d 5b 53 be 3d
       0.08549402 -0.124541946 0.0368675 0.092932425
0002c0 cf ea 11 bb ee 5a 70 3d 99 10 16 be 5b 7b d8 bb
       -0.00222652 0.058680467 -0.14654769 -0.006606502
0002d0 ef f3 29 bc a9 da 87 bd 8f 28 6f 3d eb d3 0c 3e
       -0.0103731 -0.06633503 0.05838829 0.13752715
0002e0 ed 09 1f be 24 e2 16 3d e1 5a a3 3c 1d bf 1c 3e
       -0.1553113 0.03683676 0.019940795 0.15307279
0002f0 a1 d1 83 bd c7 11 be 3d 8d 59 cc bd 82 aa 14 bd
       -0.06436468 0.092807345 -0.09978018 -0.03629542
000300 b5 13 90 3d 28 00 cb bd 1d f6 8e bd 98 fd 80 3d
       0.07035009 -0.09912139 -0.06980536 0.06298369
000310 99 d4 6e 3c 8b ca c4 bd e9 cd 31 bd 9f 78 68 bd
       0.014577054 -0.096089445 -0.04340926 -0.05675566
000320 89 f7 ab bd 51 fc f2 3d 80 5d 22 be b4 a1 f5 bc
       -0.08396823 0.11864532 -0.1585598 -0.029984333
000330 08 aa 1a 3e f5 4b 9b 3d ae 05 8b be 5e 2f 46 3c
       0.15103924 0.07582847 -0.2715277 0.012096254
000340 72 74 55 3e 14 77 d9 bc d2 65 9c bc 27 ce bc bc
       0.20845202 -0.026546039 -0.01909152 -0.02304752
000350 65 20 92 bd 45 54 33 bd 79 cd d6 3d c2 53 2f bd
       -0.07135085 -0.043781538 0.104884095 -0.042804487
000360 e4 40 42 be a8 2f 1b bc 03 7b 2b 3d ed 3e 02 3d
       -0.18970066 -0.009471811 0.04186536 0.031798292
000370 f5 c1 ef bc 77 24 dd bd a4 52 5c bd 0e 25 88 3d
       -0.02926729 -0.10797971 -0.05378975 0.066476926
000380 8d e2 86 bc 17 08 ac bd fe c2 9d 3a 76 55 88 3c
       -0.01646545 -0.083999805 0.0012036262 0.016642313
000390 15 52 f5 bd 82 bb 2d bd fc 5f da 3d 99 5b 53 be
       -0.119785465 -0.04241515 0.10662839 -0.2064041
0003a0 66 8c f8 3d 99 2c f7 3b 72 6a 2e bd 2a 73 2c be
       0.12136154 0.0075431583 -0.042581983 -0.16840807
0003b0 a9 88 d4 bc 14 ba ca 3d 6f 25 f5 bd fe 58 51 be
       -0.02594407 0.09898773 -0.119700305 -0.20444104
0003c0 d1 11 9d 3d 7d 75 0b be 16 89 f8 bc 00 cd 42 3d
       0.07669414 -0.13619037 -0.030338805 0.047558784
0003d0 0a ab f2 bd 97 54 25 3e 71 f0 e0 3d 29 fc 2f bd
       -0.11849029 0.1614555 0.109833606 -0.042965088
0003e0 b4 ea d9 3c d8 00 17 bd b1 14 1b be c3 bd b8 bd
       0.026601173 -0.03686604 -0.15144612 -0.09020569
0003f0 e6 d3 1e 3e 1b 98 e7 3d 43 dd 41 3e 66 58 23 3d
       0.1551052 0.11308309 0.18932061 0.039879225

fc2.bias f4 [400]
000000 4e da 89 be 6d ca 87 bd 81 9d 51 be fa 82 27 be
       -0.26924366 -0.066304065 -0.20470239 -0.16358557
000010 fa 65 8e be a9 6b 40 be f8 cc a7 bd 00 f3 31 be
       -0.27812177 -0.18791069 -0.081933916 -0.17377853
000020 21 24 28 be 8a 4b c1 bd ac 1b a7 bd 46 fb dd bd
       -0.16420032 -0.09438236 -0.08159575 -0.10838942
000030 42 9b 2a be ac 26 c2 bd 29 6b 02 bd e4 82 18 be
       -0.16660789 -0.09480032 -0.031840477 -0.14893681
000040 8f 4a 03 be 5f f2 ed bd 8c 39 0f 3d 5a 75 b2 bd
       -0.1282141 -0.11618494 0.03496699 -0.08713789
000050 81 30 bf be 57 20 7d be ac ba 2c be 38 6e 43 be
       -0.37341693 -0.24719368 -0.16868085 -0.19085014
000060 64 15 8c be a2 4e 14 be fa 44 8c be 90 06 35 3d
       -0.2736007 -0.14483121 -0.27396375 0.04419571
000070 d0 fc 6d bd ad 89 35 be f5 f2 25 3d d4 52 2b be
       -0.05810243 -0.177283 0.040514905 -0.16730815
000080 5f 00 0a be 4c 26 2c bd 83 c9 fe 3c 9c ac 22 be
       -0.13476704 -0.04202871 0.031101948 -0.15886158
000090 56 24 76 bd 52 39 52 bb 85 51 eb bd 1c 24 fa bd
       -0.060093246 -0.0032077623 -0.11490158 -0.122139186
0000a0 35 97 4b be 4d 68 3a be 0c 7f 4f be 42 53 2f be
       -0.198819 -0.1820385 -0.20263308 -0.17121604
0000b0 93 a6 37 be 65 fd e2 bd a5 09 2b be 3b ec c4 bd
       -0.17934637 -0.110834874 -0.16702898 -0.0961537
0000c0 e7 2c 9d be 8b 1c 03 be df 16 22 be 18 2d db 3b
       -0.3069832 -0.12803857 -0.15829037 0.006688725
0000d0 0b b2 04 be 27 51 4d bd e2 27 10 be ec d2 23 bc
       -0.12958543 -0.05012622 -0.14077714 -0.009999018
0000e0 ff f2 f4 bd 5a fe 13 bd d2 99 24 be 94 d3 51 be
       -0.1196041 -0.03613124 -0.16074303 -0.20490867
0000f0 7c 2f 8d be b8 7d c4 bd 32 de 90 be 76 12 03 be
       -0.2757529 -0.095942914 -0.28294522 -0.12800011
000100 5e e6 88 bd db c0 2b be 88 f9 bd bd 37 d4 73 bd
       -0.06684564 -0.16772787 -0.0927611 -0.059528556
000110 11 d3 51 bd 75 78 a0 bd c5 94 b5 bd b6 87 07 bd
       -0.05122668 -0.07835475 -0.08866266 -0.03308841
000120 8a 14 6c be a3 9d 1f be 20 c9 dd bc af 1f df bc
       -0.2305471 -0.15587477 -0.027073443 -0.027236788
000130 c7 fd ac bc ff b6 25 be ca 88 00 bd e0 fe 5e be
       -0.021117104 -0.16183089 -0.031380452 -0.21776915
000140 12 da 39 be ef 8d 04 be 23 c1 77 bd be a2 56 be
       -0.18149593 -0.12944768 -0.060486924 -0.20960519
000150 13 79 f9 bd 30 43 12 bd f6 eb 06 be 23 ef 36 be
       -0.12181296 -0.035708606 -0.1317595 -0.17864661
000160 fe e8 28 bd 03 4a 96 bd 09 eb 43 3c c7 70 07 bd
       -0.041237824 -0.07338335 0.011957892 -0.033066537
000170 a6 3e 1e be da 73 33 be fb 4c 16 bc 9c 69 39 be
       -0.15453586 -0.17524663 -0.009173627 -0.18106693
000180 37 25 46 be 3c 77 46 3d 38 02 48 bd ff 03 bc bd
       -0.19350134 0.048453555 -0.04883024 -0.0918045
000190 51 e5 3e be d0 b3 16 be e9 42 f1 bd 94 44 39 be
       -0.18642165 -0.1471703 -0.1178034 -0.18092567
0001a0 b8 83 77 bd 37 54 6c be eb 73 a3 bc 2c e7 4a be
       -0.06042835 -0.23079 -0.019952735 -0.19814748
0001b0 3b 75 9d bd 13 15 00 be 4d db c6 bd c4 72 30 be
       -0.076883756 -0.12508039 -0.09709797 -0.1723128
0001c0 ea fc bb bd 7b 02 ab bd 5a 69 d5 bd 75 aa c2 bd
       -0.09179099 -0.083500825 -0.10420485 -0.09505168
0001d0 e7 79 9c bd 78 53 3c bd 28 3b 9e bd ea 00 0b be
       -0.076404385 -0.04597804 -0.07726127 -0.13574567
0001e0 4f 14 1a be 70 3b 3c be 9d 56 2e be 50 22 9b 3b
       -0.1504681 -0.18382049 -0.17025228 0.004734315
0001f0 70 63 24 bd 0b c8 19 bd a4 b2 75 3c 40 5b 71 bc
       -0.040133893 -0.03754429 0.0149962045 -0.014731228
000200 e5 21 d1 bd 66 07 15 bc 27 7e 46 be 02 40 91 3b
       -0.10211543 -0.009096002 -0.19384061 0.004432679
000210 d5 f9 65 bd 4b 26 26 be fe 03 07 3c 0b 04 91 bc
       -0.05614646 -0.16225545 0.008240698 -0.017702123
000220 e0 55 e0 bd 7c 99 c8 3d f3 0e 0e be 2a 14 f2 bd
       -0.10953879 0.097949 -0.1387289 -0.11820252
000230 3c ae 80 be ec c0 a6 bd 7a a1 7d be d2 f9 f1 bc
       -0.2513293 -0.08142266 -0.2476863 -0.029538069
000240 bf 7d 21 bd 6c 4e 34 bd 14 74 f7 bd e0 84 30 bd
       -0.03942656 -0.0440201 -0.12082687 -0.04309547
000250 bd 5f bc bd ee f1 cc bb 15 3e e3 bd c6 93 01 be
       -0.09197948 -0.006254426 -0.110958256 -0.12654027
000260 e2 51 a9 ba 03 e4 25 be 48 0c 1b be c6 b1 08 be
       -0.001291808 -0.16200261 -0.15141404 -0.13349065
000270 c6 92 38 bd 12 f1 95 bc a7 7c ad bd d4 b5 38 3d
       -0.04506185 -0.018303428 -0.08471041 0.04509528
000280 3c c9 12 be 21 0f 31 bd 59 2f 59 be a2 52 fb bd
       -0.14334577 -0.04322732 -0.21209468 -0.1227162
000290 7c 35 24 be 56 a8 41 be a8 1a d0 bd 9b f0 be bd
       -0.16036028 -0.18911871 -0.10161334 -0.093232356
0002a0 d4 b4 ca bd c9 f6 87 bc 94 ef 6d bd f6 3b 12 be
       -0.098977715 -0.016597169 -0.058089808 -0.14280686
0002b0 85 ac 42 be f8 4c 57 ba a1 52 67 bc c2 fa 10 bd
       -0.19011123 -0.00082130684 -0.014118821 -0.03539539
0002c0 90 fb 8e bd 95 8b eb bd 79 cb 95 bd a0 a2 bf bd
       -0.069815755 -0.115012325 -0.073142 -0.0935719
0002d0 d8 96 fb bd eb bd 20 bc 8c fe 0b bd 0c d9 a6 bd
       -0.122846305 -0.009810905 -0.0341783 -0.08146867
0002e0 ef c9 36 be 65 48 79 be cc 30 28 bd df f0 97 bd
       -0.17850469 -0.24344023 -0.04106216 -0.074189894
0002f0 18 11 ca bd 89 2f 8e bc 70 23 80 bd 9a f3 aa 3c
       -0.098665416 -0.01735665 -0.06256759 0.020868111
000300 d8 bf f4 bd fe db 76 bb 52 a4 27 be 30 ca f0 3c
       -0.11950654 -0.0037667747 -0.16371277 0.029393286
000310 9c 5d a2 bd af f1 fd bb 08 73 42 be 3e de 16 bc
       -0.07928011 -0.007749758 -0.18989193 -0.00920826
000320 70 34 b9 bd f8 84 24 be 69 da 08 3d 65 af f7 bd
       -0.09043205 -0.16066349 0.033411417 -0.12094001
000330 aa f0 fc bd de 55 6e bb 58 a7 c1 bd 0e 77 0f be
       -0.123505905 -0.0036367099 -0.094557464 -0.1401026
000340 0d de 63 bd 40 8d 4c be 42 74 4b bd bd 11 a7 bc
       -0.055631686 -0.19975758 -0.04967142 -0.0203942
000350 d4 23 45 3c ca 8a c8 bd ea d9 5c 3d 42 aa 9a 3c
       0.012032468 -0.09792097 0.053918757 0.018880013
000360 15 a0 30 bd c6 27 10 be d3 35 38 3b 41 b5 9f bd
       -0.043121416 -0.14077672 0.0028108254 -0.07798243
000370 b3 06 ee bd 07 07 a9 3b 04 09 67 3d 0a e4 55 bd
       -0.116223715 0.0051583084 0.056405082 -0.052219428
000380 ea f4 48 be 43 78 91 bd 6e 01 1f bd e9 b9 cb bc
       -0.19624677 -0.07103016 -0.038819723 -0.024868922
000390 da 98 54 be 3f 96 e2 bc b6 7e 14 be 61 ae 01 be
       -0.20761433 -0.027659534 -0.14501461 -0.12664177
0003a0 b2 ea 15 be 4d bc 21 be a4 b8 2b bd 7e 33 3f be
       -0.1464031 -0.15794487 -0.041924134 -0.18671986
0003b0 98 ac 44 be 3d da 7e 3d 56 25 62 bd e9 35 14 bd
       -0.19206464 0.062219847 -0.055211388 -0.036184225
0003c0 d7 fa e9 bc 9a 10 88 bd ed 5a 85 3c 5e 32 eb bd
       -0.028561993 -0.066437915 0.016278708 -0.11484216
0003d0 82 fa e2 bd 57 48 fc bd 27 94 04 be 8e 17 1c 3c
       -0.11082937 -0.12318485 -0.1294714 0.0095271
0003e0 ac bd 2c be 40 05 1f be 70 28 4f be 67 10 60 bd
       -0.16869229 -0.15529346 -0.2023027 -0.054703142
0003f0 ff 15 2b be 76 74 1a be ce cb 94 bd 84 cd 0b be
       -0.1670761 -0.15083489 -0.07265435 -0.13652617
