RL-Ridesharing-master/RL-Ridesharing-master/episode_600_dqn_model_num_cars_2_num_passengers_7_num_episodes_1000_hidden_size_100.pth (torch, 227727 bytes, 4 tensors)

fc1.weight f4 [100, 160]
0.0725592 0.36742502 -0.26098123 -0.19218794 -0.3857305 -0.37344667 -0.34788162 -0.3774768
-0.37616315 -0.45692453 -0.4629081 -0.33888456 -0.38365278 -0.47460595 -0.3788678 -0.31966162
-0.2978516 -0.37911293 -0.27654237 -0.23122275 -0.29599443 -0.15937501 -0.21238251 -0.25827026
-0.22727002 -0.2834534 -0.2714049 -0.21978256 -0.13260394 -0.271437 -0.23361287 -0.243141
-0.20582445 -0.36424324 -0.0999831 -0.1182503 -0.19235843 -0.19583681 -0.1664478 -0.09022711
0.19065039 -0.38020465 -0.40957195 -0.5020873 -0.37888548 -0.4025083 -0.4220156 -0.3212574
-0.311786 -0.34074748 -0.33553454 -0.26797864 -0.3316103 -0.29774043 -0.26689464 -0.21985444
-0.17623547 -0.1666462 -0.09374969 -0.19228917 -0.001623893 0.15365867 0.35011187 0.012031962
0.20913675 0.047568552 0.11594892 0.33377832 0.18729675 0.12705559 0.080536515 0.24656601
0.32907933 0.04168452 0.10041799 0.31765997 -0.028199056 0.20604482 -0.052898467 0.29526776
0.24438222 0.054629643 0.15651086 0.029826246 0.25077412 0.291496 -0.03261608 -0.08473994
0.0068564937 0.12599224 0.050964527 -0.18209358 0.28275007 0.26687658 -0.07081291 0.24971554
-0.0653089 0.1423948 -0.10181831 -0.09639122 -0.04397303 0.02968756 0.17426865 -0.20005089
-0.010502775 -0.07756593 0.0020778952 0.21338406 -0.07946328 -0.24162723 0.17964675 -0.10631828
0.11444089 0.12586309 -0.21948871 0.025373885 0.18970498 -0.24550064 -0.052336715 0.039826185
-0.16627184 -0.0015522974 0.089182936 0.063341424 -0.0268318 -0.061180122 0.18256404 -0.11268334
-0.046108775 -0.13982359 -0.17963547 -0.13720058 0.3132275 0.26713562 0.19872683 0.2288576
-0.37613612 -0.25291595 0.0707445 -0.24067834 0.12114864 0.11922422 0.19373034 0.16054884
0.17552854 0.12589335 0.08549607 0.053716466 0.09318784 0.10071269 0.023746857 0.021292308
0.034393784 -0.09781594 -0.008365069 0.06729295 0.13990155 0.101375505 0.27003232 -0.112527564
-0.021245476 -0.087751314 0.05300452 -0.012494403 -0.039212994 0.02174626 -0.033215612 -0.033085383
0.08373977 0.08166822 -0.05112274 -0.030524284 -0.00046831742 -0.028481446 -0.027190857 -0.062779166
-0.024422083 -0.017969552 0.019776754 -0.018832322 -0.03321688 -0.06300685 0.06554716 0.0505429
-0.06722286 -0.03994933 0.07129919 -0.07416002 0.034396872 -0.02523645 0.06566299 -0.02847458
0.0077069923 -0.032677468 -0.031039268 -0.02052753 -0.009850621 -0.054490983 0.0466227 0.055497803
0.063437894 0.051569283 -0.017361969 -0.06373028 0.004409207 -0.01589 -0.056299664 -0.0140118
-0.055950783 0.014886148 0.011475354 0.011781447 0.01306358 -0.021200474 -0.0351491 0.07250322
-0.0022930503 -0.07232181 0.018820219 -0.015640453 -0.015358648 -0.026808789 -0.050002284 -0.06808959
-0.013739263 -0.0067326613 -0.037124623 -0.0070750285 0.04285209 -0.07049556 0.05615868 -0.088105984
0.020624701 -0.035860255 0.016548917 0.016828991 -0.019436635 0.022062957 0.034265872 -0.042134233
0.0023186533 -0.028323293 -0.060919326 -0.04433365 0.029894289 -0.0063239904 -0.011373651 0.0024629347
-0.028726239 -0.03809376 -0.06858012 0.008434526 0.017020188 -0.025762945 0.04970264 -0.0012768749
00000000: eb99 943d 221f bc3e 559f 85be eacc 44be
00000010: 787e c5be 6734 bfbe 8a1d b2be a444 c1be
00000020: 7598 c0be 03f2 e9be 4a02 edbe 4782 adbe
00000030: 236e c4be 8dff f2be f6fa c1be b0aa a3be
00000040: 0180 98be 171b c2be f696 8dbe a8c5 6cbe
00000050: 958c 97be 3433 23be cd7a 59be 003c 84be
00000060: 79b9 68be ce20 91be 95f5 8abe ae0e 61be
00000070: 54c9 07be caf9 8abe 3638 6fbe f4f9 78be
00000080: a5c3 52be 177e babe f1c3 ccbd 372d f2bd
00000090: 9cf9 44be 7289 48be 4b71 2abe fec8 b8bd
000000a0: db39 433e 2faa c2be 6ab3 d1be cb88 00bf
000000b0: 47fd c1be 9115 cebe 6e12 d8be da7b a4be
000000c0: 6aa2 9fbe 7476 aebe 2fcb abbe 7f34 89be
000000d0: d3c8 a9be 6f71 98be 6aa6 88be 8621 61be
000000e0: 1277 34be 4da5 2abe d6ff bfbd 74e7 44be
000000f0: cfd8 d4ba b358 1d3e dd41 b33e b521 453c
00000100: f227 563e 3ed7 423d a176 ed3d fee4 aa3e
00000110: b8ca 3f3e dc1a 023e 54f0 a43d cd7b 7c3e
00000120: 167d a83e 63bd 2a3d f2a7 cd3d 54a4 a23e
00000130: b501 e7bc 6afd 523e 10ac 58bd 562d 973e
00000140: 553f 7a3e 55c3 5f3d 6244 203e 2c56 f43c
00000150: 7765 803e f73e 953e 7098 05bd 228c adbd
00000160: 70ac e03b 1c04 013e 2ec0 503d bd76 3abe
00000170: 9ec4 903e 0ca4 883e 5c06 91bd 6eb5 7f3e
00000180: acc0 85bd f1cf 113e 1e86 d0bd c368 c5bd
00000190: 101d 34bd 5333 f33c 7b73 323e 24da 4cbe
000001a0: d513 2cbc e3da 9ebd 4c2d 083b 5a81 5a3e
000001b0: a5bd a2bd 216d 77be 51f5 373e 66bd d9bd
000001c0: fc5f ea3d 41e2 003e a6c1 60be e5dc cf3c
000001d0: 0642 423e 8564 7bbe 065f 56bd c820 233d
000001e0: 2a43 2abe 7576 cbba 8ba5 b63d 26b9 813d
000001f0: 5dce dbbc 0298 7abd 11f2 3a3e 86c6 e6bd
00000200: 8edc 3cbd ea2d 0fbe 5cf2 37be 4f7e 0cbe
00000210: 5b5f a03e 00c6 883e 0c7f 4b3e a659 6a3e
00000220: ea94 c0be 337e 81be 7ee2 903d 6274 76be
00000230: c71c f83d d42b f43d 3f61 463e ea66 243e
00000240: c1bd 333e 30ea 003e 9018 af3d cc05 5c3d
00000250: 44d9 be3d 7442 ce3d c588 c23c 356d ae3c
00000260: 7fe0 0c3d b953 c8bd a40d 09bc e3d0 893d
00000270: 5a42 0f3e f69d cf3d ad41 8a3e da74 e6bd
00000280: fe0a aebc f6b6 b3bd 441b 593d 53b5 4cbc
00000290: ce9d 20bd 3625 b23c 180d 08bd 8a84 07bd
000002a0: c27f ab3d ab41 a73d 1466 51bd 100e fabc
000002b0: 8088 f5b9 ec51 e9bc 5cbf debc 5d92 80bd
000002c0: d210 c8bc e234 93bc dc02 a23c 3e46 9abc
000002d0: 6c0e 08bd bc09 81bd 973d 863d 1206 4f3d
000002e0: 24ac 89bd e9a1 23bd 4f05 923d 35e1 97bd
000002f0: bce3 0c3d acbc cebc 517a 863d 8643 e9bc
00000300: f08a fc3b cfd8 05bd 1046 febc 5a29 a8bc
00000310: 8064 21bc f031 5fbd 72f7 3e3d aa51 633d
00000320: baeb 813d 503a 533d b03a 8ebc 0585 82bd
00000330: 1c7b 903b bf2b 82bc 7a9a 66bd c091 65bc
00000340: a62c 65bd 08e5 733c 2003 3c3c f806 413c
00000350: a008 563c 9eac adbc 81f8 0fbd 917c 943d
00000360: 0047 16bb 751d 94bd dc2c 9a3c 6820 80bc
00000370: d7a2 7bbc 1b9e dbbc 32cf 4cbd 8e72 8bbd
00000380: a51a 61bc a89d dcbb fd0f 18bd a4d5 e7bb
00000390: ac85 2f3d fa5f 90bd a506 663d e970 b4bd
000003a0: 22f5 a83c 34e2 12bd 9891 873c f4dc 893c
000003b0: 9439 9fbc 60bd b43c 5f5a 0c3d f294 2cbd
000003c0: 8cf4 173b 4006 e8bc 8b86 79bd 3497 35bd
000003d0: dee4 f43c 7a39 cfbb 8d58 3abc 3069 213b
000003e0: 4a53 ebbc 3408 1cbd bc73 8cbd f730 0a3c
000003f0: ec6d 8b3c d00c d3bc ff94 4b3d d05c a7ba

fc1.bias f4 [100]
0.14288379 -0.081903584 0.41708905 0.15307789 0.2032036 0.19957916 0.20612043 0.28065816
0.15837929 -0.012827192 0.15727241 0.12306375 0.28518686 0.24592142 0.18571378 0.21085317
0.50202453 0.29401332 0.28129682 0.2315136 0.17690288 0.00111466 0.16140369 0.015873628
0.23759061 0.30882826 0.14483461 0.21461675 0.20281322 0.26475918 -0.04235184 0.22922154
0.30840677 0.21010092 0.2901957 0.23186557 0.24397932 0.2009751 0.25898737 0.26080516
0.2059452 0.2721796 0.18045183 0.32715842 0.20127854 0.16639711 0.23142532 0.23838255
0.19817281 0.28931442 0.26978642 0.25040725 0.16336763 0.30487224 0.17241052 0.25425264
0.198658 0.28470492 0.24501464 0.19467321 0.17335017 0.25242975 0.24149446 0.2555495
0.23043688 0.22807808 0.23618159 0.19751842 0.0016751513 0.20140292 0.22448222 0.22460417
0.20007679 0.18381943 0.23615295 0.26755992 0.31388217 0.26001713 0.26771808 0.28418067
0.33196843 0.23655213 0.2939592 0.21624058 0.35482964 0.1981347 0.34876522 0.1034258
0.35357457 0.3007193 0.19006497 -0.03827726 0.28667465 0.2654729 0.27349114 0.26093188
0.30359915 0.1322205 0.16748868 0.2218548
00000000: 2150 123e 11bd a7bd b28c d53e 73c0 1c3e
00000010: 9b14 503e 7b5e 4c3e 3c11 533e 6db2 8f3e
00000020: 2e2e 223e 2529 52bc 050c 213e d908 fc3d
00000030: 0304 923e d3d2 7b3e c12b 3e3e e5e9 573e
00000040: ae84 003f ea88 963e 2306 903e e711 6d3e
00000050: 0726 353e c819 923a 0247 253e 6909 823c
00000060: f44a 733e bd1e 9e3e 864f 143e 7ec4 5b3e
00000070: 45ae 4f3e 848e 873e 1f79 2dbd 0db9 6a3e
00000080: 7ee7 9d3e b224 573e 8894 943e 2b6e 6d3e
00000090: b7d5 793e 6bcc 4d3e fe99 843e 4188 853e
000000a0: 4ce3 523e 205b 8b3e 5dc8 383e 4f81 a73e
000000b0: f61b 4e3e 0164 2a3e c2fa 6c3e 8e1a 743e
000000c0: d0ed 4a3e 0521 943e 7221 8a3e 6135 803e
000000d0: d849 273e 3718 9c3e 628c 303e 672d 823e
000000e0: 016d 4b3e d8c4 913e 1ee5 7a3e 6a58 473e
000000f0: b582 313e 793e 813e 534a 773e 62d7 823e
00000100: a5f7 6b3e 4d8d 693e 96d9 713e 4542 4a3e
00000110: c090 db3a 913c 4e3e abde 653e a3fe 653e
00000120: eee0 4c3e 293b 3c3e 14d2 713e 9dfd 883e
00000130: 2ab5 a03e f720 853e 5812 893e 2180 913e
00000140: c4f7 a93e b93a 723e d281 963e 2c6e 5d3e
00000150: 3bac b53e d3e3 4a3e 5b91 b23e e8d0 d33d
00000160: ba07 b53e e1f7 993e 64a0 423e 9ec8 1cbd
00000170: 05c7 923e 10ec 873e 0807 8c3e dd98 853e
00000180: 5971 9b3e d064 073e 2782 2b3e e82d 633e

fc2.weight f4 [400, 100]
0.02064658 -0.06130452 -0.12354312 0.060167216 -0.08846562 0.0204105 -0.28823236 -0.05797825
0.1051662 0.014581337 -0.0035180473 0.10076154 0.08593433 -0.09668841 0.013693504 -0.008831808
-0.17558482 0.07440281 -0.037585862 0.07456169 -0.012651011 -0.073026374 -0.02155422 -0.016102191
-0.021262141 0.10209642 0.08223494 -0.10585033 -0.053548075 -0.017900288 0.1093938 -0.008741005
0.018111302 0.0053634015 0.06964116 -0.082105316 -0.102167614 0.11786121 -0.04720167 -0.07561422
0.102563865 -0.015822835 0.0030908172 -0.07939233 0.055965353 -0.067854986 -0.0012139477 0.0883348
0.010582103 -0.073450334 -0.09765545 -0.069981255 0.034015797 -0.056632053 0.09605082 0.022229668
0.0044942526 0.06425954 0.027055237 0.04041889 -0.04645156 -0.103211656 -0.11128796 -0.10404971
0.05631642 -0.081800915 -0.016448013 -0.021386448 0.023753785 -0.006283273 -0.05216995 -0.009673376
0.058487643 -3.9899023e-06 0.062727824 -0.06741587 0.069142506 0.091866754 -0.0019134275 -0.032944128
0.06696385 -0.07722558 0.051365234 -0.13231537 -0.08556018 0.099639885 0.04636184 0.10925802
-0.22999847 -0.05304988 -0.092848584 -0.07963649 0.12827691 -0.12811005 0.0065461453 0.054037806
-0.13311824 -0.10895972 -0.108964436 -0.075201675 -0.019098079 0.040120833 -0.118973844 -0.10863595
-0.06445491 -0.076910615 -0.11982996 -0.040632013 0.124730244 -0.039783373 -0.00015297381 0.019517463
-0.053047188 -0.065964945 0.07161262 0.0463927 -0.18525319 -0.10592533 0.08861573 -0.0208213
0.07657848 -0.09053125 0.08039758 -0.07654065 0.03545424 0.026224012 -0.019037748 0.034167163
-0.03761285 0.03253134 -4.2260508e-05 -0.03171597 -0.17206931 -0.02928662 0.06857575 -0.11625278
-0.10413265 -0.10264049 -0.15407102 -0.059734873 0.121758275 -0.09723046 -0.06965164 -0.06720591
0.049238894 0.043343224 0.018091252 0.03209169 0.11890624 -0.14597066 -0.17102163 -0.10723644
-0.09315014 -0.067321695 -0.0028090565 -0.032437302 0.01566326 -0.021467268 0.010717014 0.10013906
0.10457641 -0.10924439 0.09679536 0.039791588 -0.04126015 -0.03927436 -0.050438657 -0.07940568
-0.10329593 -0.04445699 0.14502978 -0.0055717435 0.09085436 -0.09045113 0.032768793 0.105654076
-0.027314348 0.056477807 -0.13025573 -0.018275494 -0.011398915 -0.07023339 0.0362463 0.1460149
-0.14242938 0.02503678 -0.007376451 0.141172 -0.07501188 0.04762305 -0.09476814 -0.039564002
0.0816151 -0.09671152 -0.038384266 0.07187851 0.00066797424 -0.04248822 -0.06324799 -0.09105396
-0.099427015 0.062774405 -0.17482643 0.0105225975 0.09386253 0.07806267 -0.21701594 -0.012731566
0.162625 -0.026546039 -0.031838045 -0.059807234 -0.026017562 -0.069728985 0.08736447 -0.060537785
-0.1383123 -0.032909766 0.010712472 -0.0150823705 -0.05494755 -0.10797971 0.022381306 0.066476926
0.032547522 -0.056554794 0.00040633546 0.019059947 -0.11793162 -0.026376607 0.033057924 -0.1489075
0.16488142 0.052334525 -0.006985248 -0.13543294 -0.051384807 0.06860646 -0.10237345 -0.16506474
0.051939372 -0.10713424 -0.028923891 0.051167555 -0.11230086 0.094230846 0.09619374 -0.08073255
0.02894614 -0.039970897 -0.09869362 -0.095448814 0.09607329 0.06552234 0.12351182 0.01826101
00000000: 0423 a93c 731a 7bbd 2d04 fdbd e671 763d
00000010: 772d b5bd ec33 a73c 3193 93be 9a7a 6dbd
00000020: 6061 d73d 8fe6 6e3c 0a8f 66bb 115c ce3d
00000030: 57fe af3d 9304 c6bd b85a 603c 4ab3 10bc
00000040: 82cc 33be 8060 983d a2f3 19bd cdb3 983d
00000050: 3046 4fbc da8e 95bd 7a92 b0bc bee8 83bc
00000060: f12d aebc ee17 d13d cb6a a83d 0fc8 d8bd
00000070: 3a55 5bbd a0a3 92bc db09 e03d 6f36 0fbc
00000080: 275e 943c 79bf af3b 06a0 8e3d d526 a8bd
00000090: 413d d1bd 3861 f13d 8a56 41bd a1db 9abd
000000a0: 010d d23d e49e 81bc 4f8f 4a3b 7298 a2bd
000000b0: ed3b 653d 8ef7 8abd 531d 9fba e0e8 b43d
000000c0: 8f60 2d3c 216d 96bd 95ff c7bd 5552 8fbd
000000d0: 2654 0b3d 03f7 67bd 4bb6 c43d fe1a b63c
000000e0: 8644 933b 819a 833d f2a2 dd3c 478e 253d
000000f0: fe43 3ebd a260 d3bd f1ea e3bd 0418 d5bd
00000100: 0cac 663d 3d87 a7bd fcbd 86bc a232 afbc
00000110: 4c97 c23c eae3 cdbb 28b0 55bd 147d 1ebc
00000120: bd90 6f3d 00e1 85b6 7277 803d 5511 8abd
00000130: 969a 8d3d a324 bc3d f9cb faba 6cf0 06bd
00000140: 5824 893d 7228 9ebd 5a64 523d ae7d 07be
00000150: 2d3a afbd ff0f cc3d eae5 3d3d abc2 df3d
00000160: b884 6bbe d54a 59bd 6627 bebd 7518 a3bd
00000170: 065b 033e 482f 03be 0c81 d63b bf56 5d3d
00000180: 2650 08be 4626 dfbd bf28 dfbd 5603 9abd
00000190: 9373 9cbc be55 243d 8fa8 f3bd 867c debd
000001a0: f000 84bd 5083 9dbd 6969 f5bd c16d 26bd
000001b0: 9272 ff3d e4f3 22bd 9867 20b9 16e3 9f3c
000001c0: 0248 59bd a118 87bd a3a9 923d 4606 3e3d
000001d0: 03b3 3dbe 61ef d8bd 2a7c b53d 6e91 aabc
000001e0: 2ed5 9c3d 7368 b9bd 7da7 a43d 58c1 9cbd
000001f0: 7738 113d bdd3 d63c 0df5 9bbc def2 0b3d
00000200: ef0f 1abd 953f 053d e040 31b8 9be8 01bd
00000210: f032 30be 7eea efbc 7171 8c3d f015 eebd
00000220: 8043 d5bd 2d35 d2bd cbc4 1dbe 8eac 74bd
00000230: 675c f93d c320 c7bd 85a5 8ebd 41a3 89bd
00000240: b9ae 493d aa88 313d 1b34 943c 9372 033d
00000250: 1d85 f33d 5579 15be 4b20 2fbe c79e dbbd
00000260: 80c5 bebd f5df 89bd 2618 38bb fadc 04bd
00000270: 3d50 803c 20dc afbc 6a96 2f3c b515 cd3d
00000280: 282c d63d 86bb dfbd a53c c63d 81fc 223d
00000290: 6700 29bd 27de 20bd c498 4ebd 729f a2bd
000002a0: d18c d3bd 8818 36bd b082 143e 2c93 b6bb
000002b0: da11 ba3d 713e b9bd 9238 063d 2a61 d83d
000002c0: 57c2 dfbc 4655 673d c261 05be 7db6 95bc
000002d0: 84c2 3abc 86d6 8fbd 0077 143d ee84 153e
000002e0: 02d9 11be ef19 cd3c 28b6 f1bb 658f 103e
000002f0: d49f 99bd 6310 433d cc15 c2bd dd0d 22bd
00000300: d125 a73d b010 c6bd d238 1dbd 0a35 933d
00000310: fe1a 2f3a 2108 2ebd 2a88 81bd 807a babd
00000320: 64a0 cbbd de8f 803d b305 33be f966 2c3c
00000330: 003b c03d 52df 9f3d 6d39 5ebe 0f98 50bc
00000340: 2b87 263e 1477 d9bc 9c68 02bd 6ef8 74bd
00000350: c822 d5bc 12ce 8ebd 25ec b23d 78f6 77bd
00000360: bda1 0dbe 64cc 06bd 5d83 2f3c 0c1c 77bc
00000370: af10 61bd 7724 ddbd 0059 b73c 0e25 883d
00000380: 8d50 053d 00a6 67bd 6c09 d539 9b23 9c3c
00000390: 2286 f1bd c113 d8bc bf67 073d 357b 18be
000003a0: add6 283e ba5c 563d 82e4 e4bb efae 0abe
000003b0: e078 52bd 8b81 8c3d 2ca9 d1bd bb06 29be
000003c0: 61be 543d 3269 dbbd ccf1 ecbc 1295 513d
000003d0: fefd e5bd 1afc c03d 3901 c53d 1b57 a5bd
000003e0: 7520 ed3c 86b8 23bd e11f cabd ab7a c3bd
000003f0: 13c2 c43d 9430 863d c4f3 fc3d 1d98 953c

fc2.bias f4 [400]
-0.15970808 -0.06201157 -0.13045965 -0.11337174 -0.26090175 -0.13497338 -0.07224508 -0.16195662
-0.15740174 -0.054591637 -0.10286552 -0.09977956 -0.17074502 -0.060951278 -0.01673875 -0.14051718
-0.058599617 -0.100465685 0.036833808 -0.075534984 -0.29183686 -0.15142475 -0.15033942 -0.16322625
-0.20520914 -0.14280814 -0.24883 0.011826749 -0.03061329 -0.19168991 0.058460474 -0.14911829
-0.085455276 0.007121244 0.069855936 -0.15703467 -0.030408679 0.026121333 -0.097681455 -0.11776325
-0.1448433 -0.11551938 -0.15347107 -0.11070934 -0.16050631 -0.0728076 -0.1625942 -0.0627537
-0.28698748 -0.10770459 -0.15134406 0.0051388834 -0.13794304 -0.030665314 -0.13742508 0.008748419
-0.09345882 -0.014933846 -0.093068495 -0.16119495 -0.1895004 -0.07313913 -0.20621906 -0.068709165
-0.004097214 -0.11374998 -0.06743647 -0.029091887 -0.030106496 -0.089478135 -0.0395536 -0.03852655
-0.20073642 -0.13746959 -0.013986871 -0.0094681475 -0.00023765594 -0.13415432 -0.0441527 -0.16270867
-0.09323069 -0.07703157 -0.041041546 -0.14763342 -0.10597594 -0.016530767 -0.087257415 -0.13612136
-0.028734427 -0.062236015 0.010434937 -0.0016702295 -0.11149071 -0.1386265 -0.0059742937 -0.1806065
-0.14844297 0.051942386 -0.060038805 -0.08744275 -0.15455322 -0.13714239 -0.10059191 -0.15258981
-0.057490148 -0.20236681 -0.012198526 -0.17748417 -0.032731365 -0.103873394 -0.09896233 -0.16466962
-0.08608157 -0.079449564 -0.10286542 -0.049664088 -0.062377237 -0.029336695 -0.056806285 -0.12856497
-0.084792316 -0.15408376 -0.11272731 0.054865498 -0.019042704 -0.034526106 0.012356252 -0.01646379
-0.08507814 -0.03461029 -0.15225123 0.0050550043 -0.021949388 -0.14883673 0.014344605 -0.0021956593
-0.09645522 0.086059384 -0.148645 -0.11553031 -0.15681744 -0.055985004 -0.19916156 -0.004357192
-0.033671025 -0.042867314 -0.08231974 -0.023361696 -0.09541613 0.016685331 -0.0892985 -0.1755114
-0.023985911 -0.13110977 -0.15795472 -0.07872493 -0.058893044 0.003667289 -0.067653954 0.049742185
-0.06425947 -0.049915373 -0.16348149 -0.10022707 -0.13921465 -0.12486255 -0.090927444 -0.0898285
-0.08571151 -0.0148706585 -0.028098356 -0.14171334 -0.14816634 0.029425746 -0.03096294 -0.009005388
-0.070356086 -0.11295025 -0.07734986 -0.0935719 -0.085756496 -0.05263815 0.027867839 -0.064333394
-0.18498446 -0.21832757 -0.033123545 -0.08159899 -0.06338592 -0.009165722 -0.052339677 0.029904678
-0.104815945 -0.072831936 -0.118511364 0.047712605 -0.11786655 0.026360232 -0.13375747 0.060960792
-0.06921135 -0.124956794 0.041213676 -0.08577276 -0.09062204 0.017688835 -0.11321272 -0.11103301
-0.017400492 -0.1644911 -0.020701285 -0.009857978 0.018720502 -0.066826224 0.025289282 0.03574685
-0.047758363 -0.13221465 0.0239865 -0.051677477 -0.06224045 0.02299566 0.051742792 -0.03868719
-0.17227256 -0.051874854 -0.022937912 -0.031169226 -0.17128165 0.005386995 -0.13272816 -0.12995023
-0.13549347 -0.14774995 -0.07999971 -0.15825483 -0.13733053 0.063542 -0.0037441298 -0.027273178
-0.046352405 -0.03485927 0.010638866 -0.07596114 -0.06792739 -0.08138818 -0.13767919 0.038086012
-0.13270864 -0.13767509 -0.18260804 -0.051906418 -0.13529316 -0.16842178 -0.112871245 -0.09997705
00000000: 848a 23be d8ff 7dbd 3797 05be 712f e8bd
00000010: ea94 85be 7636 0abe 3af5 93bd f5d7 25be
00000020: ec2d 21be 7b9b 5fbd 28ab d2bd 3a59 ccbd
00000030: c8d7 2ebe 0ca8 79bd b41f 89bc bce3 0fbe
00000040: 2706 70bd f4c0 cdbd 0cdf 163d 16b2 9abd
00000050: a46b 95be 170f 1bbe 94f2 19be c824 27be
00000060: 5822 52be 4c3c 12be 4bcd 7ebe fbc4 413c
00000070: b9c8 fabc 5c4a 44be 4074 6f3d 77b2 18be
00000080: 2d03 afbd 5359 e93b a110 8f3d b2cd 20be
00000090: 9f1b f9bc 68fc d53c 370d c8bd dc2d f1bd
000000a0: cd51 14be 6d95 ecbd 8527 1dbe 94bb e2bd
000000b0: c45b 24be 271c 95bd 187f 26be 0385 80bd
000000c0: 06f0 92be 3994 dcbd f0f9 1abe 1464 a83b
000000d0: f140 0dbe d335 fbbc 29b9 0cbe 8755 0f3c
000000e0: 5667 bfbd 17ad 74bc b29a bebd 4a10 25be
000000f0: 650c 42be f8c9 95bd 172b 53be 64b7 8cbd
00000100: ec41 86bb c0f5 e8bd 221c 8abd 1c52 eebc
00000110: e6a1 f6bc 5040 b7bd f502 22bd 04ce 1dbd
00000120: d98d 4dbe d4c4 0cbe 3029 65bc 4a20 1bbc
00000130: 4833 79b9 c05f 09be 76d9 34bd 1a9d 26be
00000140: bbef bebd bac2 9dbd 2e1b 28bd 372d 17be
00000150: ea09 d9bd 886b 87bc 04b4 b2bd 6663 0bbe
00000160: 7664 ebbc 31eb 7ebd 4cf7 2a3c 9aeb daba
00000170: 3e55 e4bd 1bf4 0dbe 02c4 c3bb e9f0 38be
00000180: 6f01 18be 8ac1 543d 40eb 75bd 2f15 b3bd
00000190: 3343 1ebe 0e6f 0cbe 2203 cebd 8140 1cbe
000001a0: ca7a 6bbd 3f39 4fbe 54dc 47bc 69be 35be
000001b0: 5311 06bd 93bb d4bd c3ac cabd 279f 28be
000001c0: 894b b0bd 74b6 a2bd 1bab d2bd 926c 4bbd
000001d0: 467f 7fbd 8253 f0bc b5ad 68bd 89a6 03be
000001e0: 98a7 adbd 22c8 1dbe 93dd e6bd a5ba 603d
000001f0: 72ff 9bbc 3f6b 0dbd e171 4a3c 12df 86bc
00000200: 733d aebd 85c3 0dbd bfe7 1bbe 73a4 a53b
00000210: 34cf b3bc a868 18be a205 6b3c 0de5 0fbb
00000220: 508a c5bd e73f b03d 6536 18be 289b ecbd
00000230: c094 20be 8850 65bd 02f1 4bbe c7c6 8ebb
00000240: a1ea 09bd a395 2fbd 4097 a8bd 0761 bfbc
00000250: 8869 c3bd adaf 883c 22e2 b6bd 43b9 33be
00000260: 1a7e c4bc a441 06be e2be 21be 893a a1bd
00000270: d539 71bd e656 703b 288e 8abd 76be 4b3d
00000280: 789a 83bd 1074 4cbd b167 27be da43 cdbd
00000290: 498e 0ebe f0b7 ffbd 2b38 babd 01f8 b7bd
000002a0: 8489 afbd 10a4 73bc 862e e6bc 4d1d 11be
000002b0: ebb8 17be 430e f13c fea5 fdbc 568b 13bc
000002c0: da16 90bd 7652 e7bd 9a69 9ebd a0a2 bfbd
000002d0: 1aa1 afbd 1a9b 57bd 184b e43c 3ac1 83bd
000002e0: 916c 3dbe 4391 5fbe 8eac 07bd 5f1d a7bd
000002f0: 7ad0 81bd d32b 16bc 2162 56bd a8fa f43c
00000300: bea9 d6bd e928 95bd 16b6 f2bd 4b6e 433d
00000310: 0564 f1bd 6af1 d73c b8f7 08be 06b2 793d
00000320: aebe 8dbd 59e9 ffbd accf 283d a1a9 afbd
00000330: 0c98 b9bd 2de8 903c 12dc e7bd 4665 e3bd
00000340: 7a8b 8ebc 5b70 28be be95 a9bc 5b83 21bc
00000350: bd5b 993c 30dc 88bd 782b cf3c 4a6b 123d
00000360: 469e 43bd 4763 07be 567f c43c c3ab 53bd
00000370: d8ef 7ebd 6561 bc3c 40f0 533d 7576 1ebd
00000380: 3868 30be ba7a 54bd 4ae8 bbbc 9b56 ffbc
00000390: 7564 2fbe 6485 b03b e4e9 07be ac11 05be
000003a0: cdbe 0abe c34b 17be e3d6 a3bd 8e0d 22be
000003b0: 60a0 0cbe 4f22 823d 1360 75bb 006c dfbc
000003c0: 05dc 3dbd 98c8 0ebd a34e 2e3c 8491 9bbd
000003d0: 841d 8bbd d9ae a6bd c6fb 0cbe 1400 1c3d
000003e0: c6e4 07be b3fa 0cbe 9afd 3abe d39b 54bd
000003f0: 4a8a 0abe c276 2cbe 0a29 e7bd c5c0 ccbd
