RL-Ridesharing-master/RL-Ridesharing-master/episode_0_dqn_model_num_cars_2_num_passengers_7_num_episodes_1000_hidden_size_100.pth (torch, 227727 bytes, 4 tensors)

fc1.weight f4 [100, 160]
000000 be 24 41 3d 72 b1 6b 3d 52 94 6c 3d 92 a7 60 bd
       0.04715418 0.057542272 0.057758637 -0.054847308
000010 b4 f2 a1 3c 64 15 13 3d 12 b1 6e 3d a0 c2 c2 3c
       0.01976905 0.03590907 0.058274336 0.023774445
000020 b4 62 38 3d dd 79 12 bd 44 c3 83 bc c0 9e c3 3c
       0.045016006 -0.03576075 -0.01608432 0.023879409
000030 bc fe 87 bd 0a 0b 9e bd e0 75 6c bc b0 8c a4 3c
       -0.066403836 -0.07716949 -0.0144324 0.020086616
000040 a0 d7 70 3c 45 6f 8f bd 22 91 4b 3d 3e 29 3f 3d
       0.0146998465 -0.07003645 0.049698956 0.04667019
000050 c4 38 ef bc 3e 39 6a 3d 4a 3f 4f 3d 98 a1 81 3c
       -0.029201873 0.057183497 0.050597467 0.015824124
000060 20 a8 9a 3b ba b0 b0 bc ca 69 4b bd 8e 6f 16 3d
       0.004719749 -0.021568645 -0.049661435 0.03672748
000070 e3 f1 91 3d f7 36 3b bd 80 25 08 bb 76 58 10 bd
       0.07126214 -0.045706715 -0.0020774305 -0.035240613
000080 ae f3 3f 3d 95 d2 84 bd 38 ae f7 3c 60 21 fb 3c
       0.04686325 -0.06485478 0.030234441 0.030655563
000090 80 18 8d 3a fa d0 26 bd ce 50 51 bd 5b 11 84 3d
       0.0010764748 -0.04072664 -0.051102452 0.06448623
0000a0 c0 c5 96 ba b9 b1 0b bd 00 c1 9d 3c 15 87 a1 bd
       -0.0011503026 -0.034105036 0.019257069 -0.07887093
0000b0 7e 84 6d 3d 00 2c a3 3c 9c 74 eb bc 8c 56 fc 3c
       0.057987683 0.019918442 -0.028742127 0.030802988
0000c0 14 d5 88 3c a6 ec 9f bc c4 fa 8a bd 60 a3 4d 3c
       0.016703166 -0.019522022 -0.06786111 0.012551159
0000d0 ad 1e 9b bd e9 4b 0a bd 9c 97 4f bd 80 cf b3 3c
       -0.0757421 -0.0337638 -0.050681695 0.02194953
0000e0 21 0f 98 3d 30 3c b3 3b 8d be 80 3d 92 9c 2c bd
       0.074247606 0.0054698214 0.06286345 -0.042141505
0000f0 0c 89 45 bd 00 3d 51 bb f7 f3 88 3d 04 f4 a6 3c
       -0.0482264 -0.0031927228 0.066871576 0.020380028
000100 b8 2c 87 3c 70 ea 14 3c c2 eb 46 3d 6e d2 6f 3d
       0.016500816 0.009089097 0.04856468 0.05855029
000110 5b 91 9b 3d 60 0e e0 3c 54 75 b2 3c 0c 34 91 bd
       0.07596084 0.027350605 0.021784462 -0.07090005
000120 8c 06 f8 3c 54 70 a9 3c 68 f7 40 bc e0 1f f8 3c
       0.03027656 0.020683445 -0.011777736 0.030288637
000130 70 d9 93 bb 60 8c 01 3c b7 d0 84 bd 3a aa 32 3d
       -0.0045120046 0.007907003 -0.06485122 0.043619372
000140 4a 8d 4c 3d c0 de 25 bc 63 ff 84 3d 78 32 80 bd
       0.04993943 -0.0101239085 0.06494024 -0.06259626
000150 8e 85 b9 bc 79 b6 8c 3d 88 04 82 3c b0 ec 05 3c
       -0.022646692 0.068707414 0.015871301 0.0081741065
000160 b2 0b 7a bd f0 57 ef bc 92 e6 21 bd 54 78 94 bd
       -0.06104631 -0.029216737 -0.03952653 -0.07249513
000170 a4 a5 02 3d f9 54 5f bd a6 76 25 bd 1a 5d 64 3d
       0.03189625 -0.054524396 -0.040396355 0.05575285
000180 36 e8 56 3d 26 07 6c 3d fc e2 90 bc 16 58 96 bd
       0.052467547 0.057624005 -0.01768636 -0.0734102
000190 fd 6f 90 bd 81 64 1e bd 56 7c 53 3d 7a 16 e2 bc
       -0.0705261 -0.038670067 0.051632248 -0.027598608
0001a0 c4 a9 99 bc 13 d9 9f bd 51 52 7b bd c0 5e cd 3a
       -0.018757708 -0.078050755 -0.0613578 0.0015668496
0001b0 55 c1 96 3d ca 0d 8a bc 66 a8 37 3d 56 a8 06 bd
       0.07361094 -0.016852278 0.04483833 -0.03287538
0001c0 ab 22 87 3d 52 eb 0a bd 88 7e 70 bc 20 26 bd 3b
       0.06598409 -0.033915825 -0.014678605 0.005772367
0001d0 a0 88 21 bc 36 74 64 bd cc 26 9b bd 7f 04 56 bd
       -0.009859234 -0.05577489 -0.07575759 -0.05225038
0001e0 74 95 35 bd 79 f3 84 3d 21 26 89 3d 58 26 2c 3d
       -0.044331983 0.06491751 0.06696726 0.042028755
0001f0 34 53 9e bd 18 2d 93 bc cd 51 93 bd e0 50 8d 3b
       -0.077307135 -0.017965838 -0.07193337 0.0043126196
000200 a2 b1 9a bd c2 d1 98 bd a0 0a 85 3b c5 d6 33 bd
       -0.07553412 -0.07461883 0.0040601045 -0.043905992
000210 65 cd 9f 3d f0 16 e6 bb a7 61 64 bd 5c 2f cf bc
       0.07802848 -0.0070217773 -0.05575719 -0.025291137
000220 d0 58 fa 3c 8a 2d fb bc 10 97 e2 3b cc 37 4a bd
       0.030559927 -0.030661363 0.0069149807 -0.04936962
000230 fe b1 90 bd c7 b1 93 bd c0 d5 2e 3b 6f 6a 18 bd
       -0.07065199 -0.07211643 0.0026677698 -0.037210878
000240 00 03 3d bb 72 59 5b bd 60 11 0f 3b 49 1b 09 bd
       -0.00288409 -0.0535521 0.0021830425 -0.033473287
000250 e8 6a e1 3c ed b0 93 3d ad 25 94 3d 40 3d 5e 3c
       0.027516797 0.0721148 0.072337486 0.013564408
000260 b6 2b 65 3d 10 b4 ad 3c 10 5d 30 3c 2a 0e 60 3d
       0.05594989 0.021204025 0.010764375 0.054701008
000270 a4 93 a1 bd cd 8d 85 bd 9c ca dc 3c 34 9e 19 bd
       -0.07889488 -0.06521187 0.02695208 -0.03750439
000280 48 f5 ff bc 19 3c 9f bd 81 08 81 3d 00 7d 23 bb
       -0.031244889 -0.077751346 0.0630045 -0.0024946332
000290 22 93 49 bd 54 08 02 3d b5 02 31 bd 3d 79 30 bd
       -0.049212582 0.031746224 -0.043215472 -0.04308437
0002a0 e7 04 97 3d d3 c6 92 3d 90 5b 7a bd b6 fc 25 bd
       0.07373982 0.07166829 -0.061122477 -0.040524207
0002b0 b0 82 2b bc 84 9e 1d bd 5c bf de bc 5d 92 80 bd
       -0.01046817 -0.03848125 -0.027190857 -0.062779166
0002c0 d2 10 c8 bc e2 34 93 bc dc 02 a2 3c 3e 46 9a bc
       -0.024422083 -0.017969552 0.019776754 -0.018832322
0002d0 6c 0e 08 bd bc 09 81 bd 97 3d 86 3d 12 06 4f 3d
       -0.03321688 -0.06300685 0.06554716 0.0505429
0002e0 24 ac 89 bd e9 a1 23 bd 4f 05 92 3d 35 e1 97 bd
       -0.06722286 -0.03994933 0.07129919 -0.07416002
0002f0 bc e3 0c 3d ac bc ce bc 51 7a 86 3d 86 43 e9 bc
       0.034396872 -0.02523645 0.06566299 -0.02847458
000300 f0 8a fc 3b cf d8 05 bd 10 46 fe bc 5a 29 a8 bc
       0.0077069923 -0.032677468 -0.031039268 -0.02052753
000310 80 64 21 bc f0 31 5f bd 72 f7 3e 3d aa 51 63 3d
       -0.009850621 -0.054490983 0.0466227 0.055497803
000320 21 63 96 3d 1e 29 7c 3d 50 74 f1 bb 3e f4 96 bd
       0.07343126 0.06156265 -0.007368602 -0.07370804
000330 70 78 b6 bb a2 e8 d3 bc 76 bc 87 bd c0 91 65 bc
       -0.0055685565 -0.025867764 -0.06627743 -0.0140118
000340 a6 2c 65 bd 08 e5 73 3c 20 03 3c 3c f8 06 41 3c
       -0.055950783 0.014886148 0.011475354 0.011781447
000350 a0 08 56 3c 9e ac ad bc 81 f8 0f bd 91 7c 94 3d
       0.01306358 -0.021200474 -0.0351491 0.07250322
000360 00 47 16 bb 75 1d 94 bd dc 2c 9a 3c 68 20 80 bc
       -0.0022930503 -0.07232181 0.018820219 -0.015640453
000370 b0 97 af bb f4 b2 89 bc 78 d9 23 bd 6a ef 6d bd
       -0.0053586587 -0.016808964 -0.040002316 -0.05808965
000380 a0 0e 75 bb 20 20 56 3b 88 34 de bc a0 af 3f 3b
       -0.003739275 0.0032672957 -0.027124658 0.0029248968
000390 6a 7b 58 3d 36 ca 77 bd 31 7e 87 3d 0a f6 9f bd
       0.05285207 -0.060495578 0.06615866 -0.078106
0003a0 94 e0 fa 3c ec d8 d3 bc 14 7d d9 3c 74 c8 db 3c
       0.030624665 -0.025860272 0.0265489 0.026828982
0003b0 dc 24 f1 bc 6e 54 03 3d 58 ca c6 3c 34 9f 03 bd
       -0.029436521 0.03206294 0.024266407 -0.03213425
0003c0 f0 d2 49 3c c6 1a 96 bc ef 3c 91 bd 79 a1 0c bd
       0.012318358 -0.018323313 -0.070917 -0.03433368
0003d0 2c 68 23 3d c0 b9 85 bc 00 0d b4 ba b0 f5 f6 bb
       0.039894268 -0.016323924 -0.0013736784 -0.0075366125
0003e0 5a 9f 1e bd f2 24 e6 bc c3 f1 6f bd f4 03 97 3c
       -0.03872619 -0.028093789 -0.05858017 0.018434502
0003f0 64 59 dd 3c 19 6b 12 bd 3e 86 74 3d 58 eb 0e 3c
       0.027020164 -0.035746668 0.059698336 0.0087231025

fc1.bias f4 [100]
000000 04 5d 48 bd aa 45 93 bd fd 78 93 3d 42 7d 75 bd
       -0.04891683 -0.07191022 0.07200811 -0.05993391
000010 ff 7e 60 bd 0d af 1f bd 05 36 90 bd f4 0a 28 3d
       -0.054808613 -0.0389853 -0.070415534 0.04102607
000020 09 ad 49 bd 80 25 77 ba 32 61 89 bd d2 c9 92 bd
       -0.049237285 -0.000942789 -0.06707992 -0.071674004
000030 83 66 97 3d 18 9c 08 bd 70 49 1e 3c 47 6d 9c bd
       0.073925994 -0.033351988 0.009661064 -0.076380305
000040 e6 4b 1b 3d 0e d6 3d 3d 72 86 31 3d 94 a7 cd 3c
       0.03791418 0.046346717 0.043341108 0.025104322
000050 e8 8a 9f bd 48 14 36 3c a0 11 25 bc f0 f1 d3 3c
       -0.07790166 0.011113234 -0.010075003 0.0258722
000060 f6 13 f5 bc e6 53 50 3d 70 af 8f 3b c3 e6 89 bd
       -0.029916745 0.05086126 0.0043849275 -0.067334674
000070 a8 fb 7a bc 00 60 c0 3a 32 0d 82 bd 12 a5 04 bd
       -0.015318789 0.0014677048 -0.06350173 -0.032383986
000080 f0 79 6f bc 9a 35 5d 3d 3c aa 3b 3d 67 a5 a0 3d
       -0.0146164745 0.054006197 0.045816645 0.07844048
000090 18 e9 20 3d cc 44 db bc 32 1b 24 bd 25 35 9e bd
       0.039284796 -0.026766203 -0.040064998 -0.0772498
0000a0 50 90 5d 3c c8 12 cf 3c a6 11 5e bd 82 f4 4a 3d
       0.013523176 0.02527751 -0.05421605 0.049549587
0000b0 de f0 21 bd cf 7a 88 bd 80 29 c5 ba 6d 7c 36 bd
       -0.03953635 -0.06664049 -0.0015042275 -0.044552255
0000c0 e3 99 91 3d 0a ef d9 bc c4 a6 cc 3c 56 41 2b 3d
       0.0710943 -0.02660324 0.024981864 0.041810356
0000d0 81 ee 94 bd f0 a9 f8 3c b4 69 4f bd d0 da 81 3c
       -0.072720535 0.03035447 -0.050637916 0.015851408
0000e0 a0 7b d4 bc ce ef 7e 3d 34 f6 c1 3c d3 0b 97 3d
       -0.025937855 0.062240414 0.02367697 0.07375302
0000f0 b8 08 18 bd f2 18 10 3d 0f 5c 32 bd 40 54 ce bb
       -0.03711769 0.03518004 -0.043544825 -0.0062966645
000100 40 41 fa 3a 78 55 7c bc f4 d4 9f 3c 38 a3 23 3d
       0.0019092932 -0.015401237 0.019510724 0.03995058
000110 74 58 80 3c d6 82 25 bd d0 15 5c bc 3e 58 50 3d
       0.015667178 -0.040407978 -0.013432935 0.050865404
000120 3e 6c 57 bd b8 e3 8a bc 24 24 e3 3c 88 50 72 3c
       -0.052593462 -0.016954288 0.027727194 0.014789708
000130 e2 4f 5e 3d 40 09 f9 3c a5 d8 94 3d c0 08 f7 3a
       0.0542754 0.030399919 0.07267884 0.0018847212
000140 9d ea a0 3d 40 f5 07 3c 9f 25 8b 3d 82 79 db bc
       0.07857249 0.008298218 0.06794285 -0.026791338
000150 dc f1 8c 3c 8a 55 44 bd 67 c9 1a bd b8 01 8a bd
       0.017205171 -0.04793314 -0.03778973 -0.06738609
000160 c0 32 de 3a ab 70 92 3d 2f 7a 1b bd be 68 11 bd
       0.001695238 0.07150396 -0.03795832 -0.03550028
000170 6a d9 5a 3d 92 c4 24 3d 4e 40 54 3d 78 7d 88 3c
       0.05343 0.040226527 0.05181914 0.01666139
000180 be f8 61 3d 88 46 6f bc 14 b5 3c bd 50 7b 66 bc
       0.05516886 -0.014604218 -0.046071127 -0.014067486

fc2.weight f4 [400, 100]
000000 ee 14 0a 3d 73 1a 7b bd 60 ba 47 bb d7 95 a3 3d
       0.033711366 -0.06130452 -0.0030476078 0.07987564
000010 6b d4 94 bd 34 06 9a 3c b4 ec 01 bd 0c 86 f9 bc
       -0.07267078 0.018801786 -0.03171988 -0.030459426
000020 a2 c7 2a 3d c8 5e c9 3c 20 29 b0 bc 91 53 ad 3d
       0.04169429 0.024581328 -0.021503985 0.08463205
000030 23 a2 86 3d 33 59 bb bd 28 87 7c bc 34 d4 a8 bc
       0.06573894 -0.09147873 -0.015413083 -0.020608999
000040 fc f8 ef 3c e1 ab b2 3d 9d 27 7c bd 36 af 4b 3d
       0.02929353 0.087241895 -0.061561216 0.04972764
000050 00 90 6b bb fa 13 81 bd 64 22 11 bd 00 f5 c7 bb
       -0.0035943985 -0.06302638 -0.035433188 -0.0061022043
000060 c0 4d 7b 3c 69 ae bf 3d 90 7a 15 3c d0 5f 8e bd
       0.015338361 0.09359438 0.009123459 -0.069518685
000070 ca 40 3e bd a7 7a 23 bd 62 40 6a 3d c2 d3 14 3d
       -0.046448506 -0.039911892 0.057190306 0.03633476
000080 57 ad 9f 3d e0 6c 9c bb 5e 64 1f 3d 9e 94 96 bd
       0.07796734 -0.004773721 0.038914077 -0.07352565
000090 a8 39 a7 bd a1 75 8e 3d 80 a9 a5 3b 28 71 89 bd
       -0.08165294 0.0695603 0.0050556064 -0.06711036
0000a0 41 89 9d 3d 98 9e 52 bc d6 d8 14 3d da 6b 83 bd
       0.07692195 -0.0128551945 0.036339603 -0.064170554
0000b0 1f 65 8f 3d da f9 a9 bd 6c 9b fa bc 31 2f b1 3d
       0.07001709 -0.082996085 -0.030591689 0.08651579
0000c0 34 4a cb bc 6c 27 c1 bc 37 0e 56 bd c8 62 90 bd
       -0.024815656 -0.023578368 -0.05225965 -0.07050091
0000d0 e6 1d 3c 3d 90 b5 1c bd ad 65 c2 3d 80 57 c6 ba
       0.04592695 -0.03825909 0.09492049 -0.0015132278
0000e0 a8 11 42 3c fe 28 61 3d 98 a5 0c 3c b8 5a 89 3c
       0.01184503 0.054970734 0.0085844025 0.01676689
0000f0 b3 c2 46 bd f3 64 c6 bd 57 15 cb bd d2 38 97 bd
       -0.048525523 -0.09687223 -0.099161796 -0.073838845
000100 72 82 1f 3d 0d 68 76 bd d8 67 1e bc a3 6a b5 3d
       0.03894276 -0.060157824 -0.009668313 0.0885823
000110 7a b2 31 3d 6c cc f2 bc 0a e2 04 bd 94 5e 83 bd
       0.0433831 -0.029638492 -0.03244213 -0.06414524
000120 b9 44 a5 3d 14 83 85 3c 8a 0f 28 3d ea fe 38 bd
       0.080697484 0.016297854 0.041030444 -0.04516498
000130 16 c1 79 3d e3 f5 a9 3d 70 9f 4d 3c 74 78 06 bd
       0.060975157 0.08298852 0.01255022 -0.032829717
000140 26 fa 50 3d 84 19 81 bd 82 d0 17 3d ff 9a cb bd
       0.05101981 -0.06303695 0.037064083 -0.099416725
000150 db 9c bf bd 6b e4 99 3d f5 98 b3 3d 75 55 98 3d
       -0.0935609 0.075142704 0.087694086 0.07438175
000160 35 95 a4 bd 63 58 63 bd e3 3a c3 bd 07 58 79 bd
       -0.080362715 -0.055504214 -0.09532716 -0.060874965
000170 d3 53 cc 3d 5a 0a a8 bd f8 d5 94 bc 55 0b ab 3d
       0.09976926 -0.082050994 -0.018168435 0.08351771
000180 b0 5d 10 bd d2 ef bb bd 1a fa b8 bd 3a 65 b2 bd
       -0.035245597 -0.091766015 -0.09032078 -0.08710714
000190 a6 21 08 3d 42 4b 4d 3d c2 9c 20 3d 68 a5 95 bd
       0.033235215 0.0501206 0.039211996 -0.07306939
0001a0 d0 52 17 bd 73 e9 56 bd 1f 68 ad 3d 38 e2 80 bc
       -0.03694421 -0.05246873 0.08467125 -0.01573287
0001b0 98 bc c3 3c 48 fc f3 bc 26 69 00 3d 38 20 ad 3c
       0.02389364 -0.029783383 0.031350277 0.021133527
0001c0 8a 5c 3c bd 83 f1 4a bd d8 b5 57 3c a8 ba 14 3c
       -0.04598669 -0.04954673 0.0131659135 0.009077705
0001d0 1a 5d 2c 3d ae 94 95 bd 79 7e bb 3d 2d ac 2f bd
       0.042080976 -0.07303749 0.09154982 -0.04288881
0001e0 55 0e ab 3d 93 ed a4 bd b8 2f 9d bc 58 c1 9c bd
       0.08352343 -0.08053126 -0.019187793 -0.07654065
0001f0 b9 c8 9d 3d d8 32 36 3c c0 c5 55 bd 38 b5 91 bc
       0.077043004 0.0111205205 -0.052190542 -0.017786607
000200 d8 6e 1c bc 55 a0 91 3d a0 9e 70 3b 58 fc fb bc
       -0.009547912 0.07110659 0.0036715642 -0.030759975
000210 30 b0 67 bd c0 83 61 bb fa 76 3a 3d d0 9f a2 bd
       -0.05656451 -0.0034410805 0.04552362 -0.07940638
000220 b3 3c 47 bd 95 f4 9a bd 30 16 07 bc 94 23 a7 3c
       -0.04864187 -0.075661816 -0.008245036 0.020402707
000230 3b 55 b1 3d 20 2b 66 bd cc 3f b3 bc 90 9e 72 bd
       0.086588345 -0.05619347 -0.021881007 -0.05923325
000240 c2 95 5f 3d d2 f8 10 3d 60 19 05 bb 37 fc bd 3d
       0.05458618 0.035393544 -0.0020309314 0.09276622
000250 69 1b 98 3d b4 c8 f0 3c 3d 5b 94 bd 2a 3c ad bd
       0.07427103 0.029392578 -0.07243965 -0.08458741
000260 af 5e c7 bd 37 9c 79 bd 24 8a dd 3c ed 33 31 bd
       -0.09734856 -0.060939994 0.02704341 -0.04326241
000270 20 98 be bb 76 24 49 3d 78 14 d7 bc e5 10 ba 3d
       -0.0058164746 0.049107037 -0.026254877 0.090852536
000280 9f bd b4 3d 60 9b 76 bd 2d fc b0 3d 70 76 69 3c
       0.0882523 -0.06020677 0.08641849 0.014249429
000290 f4 4e d8 3c d0 13 e5 bb 60 e7 15 bd 41 1a 95 3d
       0.026404835 -0.006990887 -0.03659761 0.07280398
0002a0 fa 11 bf bd 00 f7 87 bd 52 ba 72 3d 10 98 1a 3c
       -0.09329601 -0.066389084 0.05925972 0.009435669
0002b0 d1 95 99 3d 53 ea 4f bd ea 8e 0e 3d 39 3b b0 3d
       0.07499278 -0.05076058 0.034804262 0.08605046
0002c0 60 d1 b2 bb c2 b3 48 3d e5 27 c2 bd 68 85 75 3c
       -0.0054570884 0.048999555 -0.094802655 0.01498542
0002d0 00 4b 7c bc 06 b2 8d bd 59 16 ad 3d 0d 03 a1 3d
       -0.015398741 -0.06918721 0.08451528 0.0786191
0002e0 d0 24 c9 bd a2 90 3f 3d cf d8 8c 3d 2f 0e c3 3d
       -0.098214746 0.046768792 0.068772905 0.0952419
0002f0 02 5a 01 3d e2 e9 2e 3d 68 39 ff bc b3 d7 7a bd
       0.03157998 0.042703517 -0.031155303 -0.061240863
000300 a1 c3 98 3d 43 39 9f bd f4 ea f8 bc d2 5b 5f 3d
       0.07459188 -0.07774594 -0.030385472 0.054530926
000310 eb 7c b2 3d 4c 68 95 3c 66 10 04 bd ca e9 9b bd
       0.087152325 0.01823821 -0.0322422 -0.07612951
000320 00 82 80 bc b3 0a 95 3d ec ae a3 bc f3 52 ba 3d
       -0.015686989 0.07277431 -0.01998087 0.090978526
000330 9d 45 93 3d d2 e8 4e 3d 77 ad bf bd 40 6f 25 3c
       0.07191012 0.050515004 -0.09359258 0.010097325
000340 f5 23 bf 3d 14 77 d9 bc 74 d2 dd bc 07 72 41 bd
       0.0933303 -0.026546039 -0.027077891 -0.047227886
000350 34 05 b9 bc 0a 39 88 bd 6f eb 90 3d cd 99 8d bd
       -0.022585489 -0.06651504 0.070761554 -0.06914101
000360 90 82 5c bc a0 bd 97 bc f8 38 c2 bc 06 dd 9d bd
       -0.013458863 -0.018523037 -0.023708805 -0.077081725
000370 82 74 9e bd 9a a9 c8 bd 41 af 9e 3d e9 9f 9c 3d
       -0.07737066 -0.09797974 0.07748271 0.07647688
000380 4a bb 6f 3d dd 37 5b bd 9d 80 31 bd 80 83 86 3c
       0.058528222 -0.053520072 -0.043335546 0.016420126
000390 8e b4 93 bd b0 d5 9c 3b 00 61 20 3a 30 a0 55 bd
       -0.072121724 0.0047862157 0.000611797 -0.05215472
0003a0 c2 7f 02 3d 1b e8 8f 3d c0 a8 fd 3a 50 32 76 bd
       0.03186012 0.070266925 0.001935266 -0.060106575
0003b0 48 32 f3 bc 46 19 2b 3d d0 5d de 3b 0c 30 85 bd
       -0.029687062 0.04177215 0.0067860857 -0.06503305
0003c0 2e b9 59 3d e0 ab 86 bd e0 f3 aa bc 6e d1 26 3d
       0.053155117 -0.06575751 -0.020868242 0.04072707
0003d0 e5 38 bf bd 7e 86 49 3d 51 a7 87 3d ad a1 58 bd
       -0.09337024 0.049200527 0.0662371 -0.05288856
0003e0 64 7b fb 3c 80 f5 08 bd 18 95 d2 bc 7d 8f b0 bd
       0.030698486 -0.033437252 -0.025705859 -0.08621118
0003f0 ed 9a a4 3d 72 42 10 3d ec 0b e2 3c 00 5e ed 3a
       0.08037362 0.035219617 0.027593575 0.0018109679

fc2.bias f4 [400]
000000 82 52 76 3d fe 27 5f 3d 60 07 73 3b 71 f7 88 3d
       0.06013728 0.0544815 0.0037083253 0.06687821
000010 50 bc 74 bd 00 d6 90 bd 50 e6 ae bb 9a 77 0e 3d
       -0.0597499 -0.07072067 -0.005337514 0.03478203
000020 83 a6 39 bd 28 86 99 bc 80 eb 1f bc 12 1d a2 bd
       -0.045324814 -0.018740728 -0.009760737 -0.07915701
000030 4c 06 89 bc 72 b9 5f 3d 0a 6b 29 3d 30 0f 63 bc
       -0.016726635 0.054620214 0.041361846 -0.013858601
000040 be d4 26 3d 20 85 e6 3b 6b 85 ae 3d 8c 37 8b 3c
       0.04073023 0.0070349127 0.08521541 0.01699426
000050 76 f1 a4 bd 44 9d ef 3c 60 cb c9 bd 68 1a 8d bd
       -0.080538675 0.029249795 -0.09853244 -0.06889802
000060 da 6f 5f bd 40 c3 21 bc ed 95 3f bd 59 80 b2 3d
       -0.05455003 -0.009873211 -0.04677384 0.087158866
000070 70 e3 0c 3c 4b 3c a6 bd 39 79 cc 3d cd 1c 82 bd
       0.008599147 -0.08116969 0.09984059 -0.063531496
000080 e1 ec b7 3d 7b aa 99 3d f9 a4 ca 3d ba 9a 19 bd
       0.08980728 0.0750322 0.09894747 -0.037501074
000090 78 4f c4 3c b9 66 9e 3d f5 f5 8d 3d fb 72 cc bd
       0.023963675 0.077344365 0.06931678 -0.09982868
0000a0 cb 48 9c 3d 80 2a bb 3c a0 1a 22 3b 00 46 78 bc
       0.07631072 0.022847414 0.0024735108 -0.015153408
0000b0 d8 51 ad bc 1e fa 41 3d 96 f9 18 bd dd af 86 3d
       -0.02115719 0.04735767 -0.0373474 0.06576512
0000c0 4a a0 86 bd f8 1e 89 3c 00 c7 84 bd ca f7 73 3d
       -0.065735415 0.0167384 -0.06483269 0.059562482
0000d0 b6 e5 17 3d a0 ee 3b 3b 68 0f 69 bc d9 dc ca 3d
       0.037084304 0.0028676167 -0.014224865 0.099054046
0000e0 30 58 dd bb 12 c9 5b 3d 07 9d 67 bd 40 a8 65 bd
       -0.0067548975 0.053658552 -0.056546237 -0.05606866
0000f0 68 c9 6e 3c 5b a0 a5 3d c8 75 a7 bc f9 b8 ad 3d
       0.014574386 0.08087226 -0.020441905 0.08482546
000100 b0 a2 3e 3c e2 39 53 3d f7 e1 28 bd 9c 24 e6 3c
       0.011635467 0.051568873 -0.041231122 0.028093629
000110 de b4 5c 3d 4d 19 6f bd ee 19 52 3d a4 2d cf 3c
       0.053883426 -0.058373738 0.05129426 0.025290318
000120 dd 16 b0 bd 43 ed c9 bd 52 19 13 3d 46 0a 08 3d
       -0.08598111 -0.09859707 0.03591282 0.033212923
000130 e3 74 a8 3d 66 62 16 bd 47 48 1b bd 80 db 6b bd
       0.08225419 -0.036714934 -0.037910726 -0.05758238
000140 ed 69 bd 3d 98 a3 09 3c 27 1c 8b 3d 20 94 f7 bb
       0.09248719 0.00840082 0.06792479 -0.0075554997
000150 b0 cf 25 bd c7 38 93 3d 74 61 ee 3c e2 c0 8e bd
       -0.04048127 0.07188564 0.029099204 -0.06970383
000160 c9 0b 94 3d de b5 13 3d a5 f3 c5 3d f1 d6 ae 3d
       0.0722881 0.036062114 0.09665612 0.085370906
000170 17 38 64 bd 7b 4f a6 bd 52 5b 10 3d e5 85 90 bd
       -0.055717554 -0.081206284 0.03524334 -0.07056788
000180 2e 91 8a bd 8a c1 54 3d 94 88 c3 bc 77 af 7e bd
       -0.06765972 0.051942386 -0.023868836 -0.062179055
000190 f0 9a 14 3c 4d 4d 92 bd de 8f 6e 3d 2d 82 8a bd
       0.009070143 -0.0714365 0.05824267 -0.0676311
0001a0 e6 86 14 bd 2b 15 ad bd 59 ce c5 3d 00 44 bf bd
       -0.03626146 -0.08451303 0.09658498 -0.09339142
0001b0 6d 58 a1 3d b0 7d 86 bb 80 ac c1 bb 7b 31 c9 bd
       0.07878194 -0.0041043386 -0.005910456 -0.09823891
0001c0 f0 f6 11 bc c7 5b 5b bd b8 5f 8c bd 00 f2 7c bc
       -0.008908972 -0.053554323 -0.068541944 -0.015438557
0001d0 a0 a6 dd bc 10 30 08 3c 00 c3 4a bb 87 75 ad bd
       -0.027056992 0.00831224 -0.0030938983 -0.08469682
0001e0 00 c9 eb bc a0 2e 98 bd e3 ae 70 bd 99 e3 b6 3d
       -0.028782368 -0.07430768 -0.058760535 0.089301296
0001f0 89 e7 a6 3d ea b2 5f 3d 90 32 5f 3c b5 89 bc 3d
       0.081496306 0.054613985 0.013622895 0.09205953
000200 64 0b ef 3c 24 b4 fe 3c 13 18 a9 bd 3b a7 80 3d
       0.029180236 0.031091757 -0.08256545 0.06281897
000210 3e ad 3d 3d ad 92 ac bd e5 43 94 3d bc 1f e2 3c
       0.046307795 -0.08426414 0.07239512 0.027603023
000220 a7 d7 2f bd a5 62 c3 3d 63 64 55 bd cd 28 bc bd
       -0.04293027 0.09540299 -0.05209769 -0.0918747
000230 b2 ef a0 bd 92 4b 06 3d 0b 2b be bd 29 80 98 3d
       -0.07858218 0.032786913 -0.092855535 0.074463196
000240 0c d1 a2 bc d3 0c 26 bd d8 ab 7e bc a6 9f 23 3d
       -0.019875072 -0.040539574 -0.0155439 0.039947174
000250 08 1b d0 bc 71 9e aa 3d 20 52 9f bb e2 d1 b3 bd
       -0.025403515 0.083310015 -0.004862085 -0.08780266
000260 2e 65 06 3d b6 9f 9b bd 40 e1 6d bd 44 1a e4 3c
       0.032811336 -0.07598822 -0.058076143 0.027844556
000270 16 79 22 3d 26 57 22 3d 2c c0 0f bd dd 7e a7 3d
       0.039666258 0.039633892 -0.03509538 0.08178494
000280 a8 a2 2c 3c e0 06 b4 3b 93 72 49 bd ca a7 2b bd
       0.010536827 0.0054939836 -0.049181532 -0.041908063
000290 ea fb 03 bd 25 ba 81 bd 78 9d 88 bc 20 59 b5 3b
       -0.032222666 -0.063343324 -0.01667665 0.005534306
0002a0 e0 d5 8f 3c 47 c0 b4 3d e2 ed 7c 3d 9a 54 0a bd
       0.017558038 0.088257365 0.0617503 -0.03377209
0002b0 08 35 cd bc 31 ab 90 3d d8 55 3b bc 9f de ad 3d
       -0.025049701 0.07063902 -0.011434041 0.08489727
0002c0 90 f1 52 bc c0 84 51 bd f3 65 6c bd a0 a2 bf bd
       -0.012874976 -0.05115199 -0.057714414 -0.0935719
0002d0 44 5f 0f bd c0 93 60 bb 0d be cb 3d a4 09 f2 3c
       -0.03500296 -0.0034267753 0.09948359 0.029545613
0002e0 f5 b6 bb bd bb 35 a4 bd d0 4c 70 bc ca df 0b bd
       -0.09165756 -0.08018061 -0.014666751 -0.03414897
0002f0 00 dc 34 3a f6 09 01 3d 20 a1 a3 bb fb 0d b1 3d
       0.00068992376 0.03150364 -0.004993573 0.08645245
000300 7d 2f 99 bd d4 6f 96 3c 03 37 3b bd 8f 0f bf 3d
       -0.07479761 0.01836387 -0.04570676 0.093291394
000310 18 05 69 bc 51 9b 86 3d 80 09 ca bd 06 b2 79 3d
       -0.014222406 0.06572593 -0.09865093 0.060960792
000320 20 83 25 bd 6b 17 a6 bd 81 2f c9 3d 40 c6 b1 bc
       -0.040408254 -0.081099354 0.09823514 -0.021700978
000330 18 c0 a3 bd 7b a6 ca 3d 98 3f d4 bc 63 25 47 bd
       -0.07995623 0.09895035 -0.02590923 -0.04861964
000340 a3 b3 8d 3d 8b c1 b0 bd 92 ce 47 3d 36 9d 33 3d
       0.069190286 -0.086306654 0.048780985 0.0438511
000350 ca cd 4a 3d d0 85 0e bd 51 3b 9a 3d cf 35 8f 3d
       0.049512662 -0.034795582 0.07530845 0.06992685
000360 12 9a 31 3d 80 da b1 bb 46 b7 79 3d c3 ab 53 bd
       0.043359824 -0.0054276586 0.0609658 -0.051677477
000370 7c 76 0c bd dd 99 a8 3d b2 3a 20 3d 6b 97 8a 3d
       -0.034292683 0.08232472 0.039118476 0.06767162
000380 c8 76 a3 bd 3c a2 fa 3c 92 33 75 3d 64 c1 de 3c
       -0.0798164 0.030594938 0.059863634 0.027191825
000390 30 81 94 bd 9a 8a 67 3d da 54 3b bd 45 00 a9 bd
       -0.07251203 0.056528665 -0.045735218 -0.082520045
0003a0 e5 c3 9f bd 13 6f 8d bd 32 74 52 3d e8 a0 61 bc
       -0.07801036 -0.06905951 0.051380344 -0.013771273
0003b0 f4 97 e5 bc d1 85 af 3d e7 e1 c8 3d 00 6c df bc
       -0.028026558 0.08570445 0.098087125 -0.027273178
0003c0 50 20 ff 3b 34 52 90 3c 85 5f b4 3d 9a 45 23 3d
       0.0077858344 0.017617323 0.088072814 0.0398613
0003d0 62 a9 2e 3d cc b0 e5 3c 56 c6 a1 bd 7b 7d cb 3d
       0.042642005 0.028038405 -0.07899158 0.09936043
0003e0 98 ad b6 3c 53 b6 64 bd 8f 67 b9 bd 96 a0 6e 3d
       0.022299573 -0.05583794 -0.09052955 0.058258615
0003f0 0d e7 3e bd 37 dc ae bd d7 31 1c bd 0c c7 96 bc
       -0.046607066 -0.085380964 -0.03813347 -0.01840546
