RL-Ridesharing-master/RL-Ridesharing-master/episode_400_dqn_model_num_cars_2_num_passengers_7_num_episodes_1000_hidden_size_100.pth (torch, 227727 bytes, 4 tensors)

fc1.weight f4 [100, 160]
0	0x3e148bbc	0.1450643
1	0x3e9aae79	0.30211237
2	0xbdd166fd	-0.102247216
3	0xbd77d61a	-0.060506918
4	0xbe6120d3	-0.21985178
5	0xbe4e8016	-0.20166048
6	0xbe3f8756	-0.1870397
7	0xbe5808c9	-0.21097101
8	0xbe662d9b	-0.22478335
9	0xbe92d02a	-0.28674442
10	0xbe9a1c93	-0.30099925
11	0xbe4fa414	-0.20277435
12	0xbe8d9f43	-0.2766057
13	0xbeab89d5	-0.33503595
14	0xbe913ad3	-0.28365192
15	0xbe715296	-0.2356666
16	0xbe53b6db	-0.20675223
17	0xbe9d2ae9	-0.306968
18	0xbe379e83	-0.17931561
19	0xbe10a1d9	-0.1412424
20	0xbe875752	-0.26433808
21	0xbddb6d13	-0.10714164
22	0xbe2fd490	-0.1717093
23	0xbe58e957	-0.21182762
24	0xbe4205db	-0.18947546
25	0xbe7baa88	-0.24576771
26	0xbe7ec601	-0.2488022
27	0xbe508eab	-0.20366924
28	0xbe03ef45	-0.12884243
29	0xbe84c708	-0.259331
30	0xbe68f296	-0.22748789
31	0xbe6f207d	-0.23352237
32	0xbe40a924	-0.18814522
33	0xbeb0747f	-0.3446388
34	0xbdc0a9a9	-0.0940736
35	0xbdc4ae98	-0.096036136
36	0xbe44f99c	-0.19235843
37	0xbe488972	-0.19583681
38	0xbe2a714b	-0.1664478
39	0xbdb8c8fe	-0.09022711
40	0x3e28d83f	0.16488741
41	0xbe48df7c	-0.19616503
42	0xbe66f575	-0.22554572
43	0xbea9f144	-0.33191884
44	0xbe618568	-0.22023547
45	0xbe81dca7	-0.25363657
46	0xbe9545eb	-0.29154906
47	0xbe636712	-0.22207287
48	0xbe62ce83	-0.2214909
49	0xbe7abc36	-0.2448586
50	0xbe927657	-0.2860591
51	0xbe5ec4d4	-0.21754771
52	0xbe946102	-0.2898026
53	0xbe8be1d9	-0.27320746
54	0xbe7fe53c	-0.2498979
55	0xbe537f52	-0.20654038
56	0xbe2457ee	-0.16049168
57	0xbe10ccb1	-0.14140584
58	0xbdbfffd6	-0.09374969
59	0xbe44e774	-0.19228917
60	0x3d4ee83c	0.050514445
61	0x3e09f7ff	0.13473509
62	0x3ea0dae0	0.31416988
63	0x3db99255	0.09061114
64	0x3e1935ed	0.14961977
65	0x3d99d4b4	0.07511273
66	0x3dbe56fa	0.09293933
67	0x3e97498b	0.29548296
68	0x3e577cd3	0.2104371
69	0x3e172f86	0.14764223
70	0x3e046d41	0.12932302
71	0x3e611ddd	0.21984048
72	0x3e933a6f	0.2875552
73	0x3dfd0a0b	0.12355431
74	0x3e003246	0.12519178
75	0x3e98b02b	0.29821905
76	0x3d297860	0.041374564
77	0x3e53c6bd	0.20681281
78	0x3b6517eb	0.0034956883
79	0x3e8eb215	0.2787024
80	0x3e71f62d	0.23629065
81	0x3e17e9c1	0.14835264
82	0x3e3478db	0.17624228
83	0x3d9d596d	0.07683072
84	0x3e4f8f96	0.20269617
85	0x3e8995c4	0.26872075
86	0x3cdd399e	0.027005013
87	0xbd0db622	-0.034597524
88	0x3ce40bac	0.027837597
89	0x3dffe9f4	0.12495795
90	0x3da0b3b1	0.078467734
91	0xbe27edee	-0.16399357
92	0x3e894cc3	0.26816377
93	0x3e2b5480	0.16731453
94	0xbd32fa42	-0.043695696
95	0x3e83a567	0.2571213
96	0x3d8aada4	0.067714006
97	0x3defd755	0.11710993
98	0xbcfa4ecb	-0.03055515
99	0x3c3347b8	0.010942392
100	0xbd20f63f	-0.03929734
101	0xbceaa2b4	-0.028642036
102	0x3e17a71e	0.14809844
103	0xbe1f65c7	-0.15566169
104	0x3afbc282	0.0019207748
105	0xbdd2b89d	-0.102891184
106	0x3ca26e63	0.019828027
107	0x3e5cdf25	0.21569498
108	0xbc874076	-0.01651023
109	0xbe2754a8	-0.16340888
110	0x3e306010	0.17224145
111	0xbd89e5ba	-0.0673327
112	0x3d94f49c	0.07273218
113	0x3dc76351	0.0973574
114	0xbe42e1ab	-0.19031398
115	0xbadc5efc	-0.0016812976
116	0x3e011101	0.12604143
117	0xbe4df532	-0.20113066
118	0xbddf2dc3	-0.108974
119	0xbc87055b	-0.016482046
120	0xbe016912	-0.12637737
121	0x3d028f41	0.0318749
122	0x3de40228	0.11133224
123	0x3dc9c08e	0.0985118
124	0xbdb613ab	-0.0889047
125	0xbd34c2c2	-0.044131048
126	0x3d9cb6a7	0.07652026
127	0xbd66c200	-0.056337357
128	0xbdfc904c	-0.1233221
129	0xbe145140	-0.1448412
130	0xbda4e95b	-0.080523215
131	0xbe35c80f	-0.17752098
132	0x3e9fed93	0.31235942
133	0x3e5a72aa	0.21332803
134	0x3e2bdb3a	0.16782847
135	0x3e658e00	0.2241745
136	0xbe5584eb	-0.20851485
137	0xbe19b235	-0.15009387
138	0x3d0924e3	0.033482444
139	0xbdeae6a6	-0.11469774
140	0x3dc35989	0.09538562
141	0x3dc05240	0.09390688
142	0x3e2df087	0.16986285
143	0x3e0b76f3	0.13619594
144	0x3e225ea6	0.15856418
145	0x3ddbc4ce	0.10730897
146	0x3dc22028	0.094787896
147	0x3d82750b	0.063699804
148	0x3ded8a3e	0.11598633
149	0x3e05254e	0.13002512
150	0x3d8152fb	0.063146554
151	0x3cfd6970	0.030934066
152	0x3d2915e9	0.04128066
153	0xbd7c3952	-0.061578102
154	0xbc7f5ef7	-0.015586606
155	0x3d3f36f0	0.04668325
156	0x3d1ec770	0.038764417
157	0x3c3daba6	0.011576569
158	0x3e6b17c8	0.2295829
159	0xbd4e3714	-0.050345495
160	0xbcae0afe	-0.021245476
161	0xbdb3b6f6	-0.087751314
162	0x3d591b44	0.05300452
163	0xbc4cb553	-0.012494403
164	0xbd209dce	-0.039212994
165	0x3cb22536	0.02174626
166	0xbd080d18	-0.033215612
167	0xbd07848a	-0.033085383
168	0x3dab7fc2	0.08373977
169	0x3da741ab	0.08166822
170	0xbd516614	-0.05112274
171	0xbcfa0e10	-0.030524284
172	0xb9f58880	-0.00046831742
173	0xbce951ec	-0.028481446
174	0xbcdebf5c	-0.027190857
175	0xbd80925d	-0.062779166
176	0xbcc810d2	-0.024422083
177	0xbc9334e2	-0.017969552
178	0x3ca202dc	0.019776754
179	0xbc9a463e	-0.018832322
180	0xbd080e6c	-0.03321688
181	0xbd8109bc	-0.06300685
182	0x3d863d97	0.06554716
183	0x3d4f0612	0.0505429
184	0xbd89ac24	-0.06722286
185	0xbd23a1e9	-0.03994933
186	0x3d92054f	0.07129919
187	0xbd97e135	-0.07416002
188	0x3d0ce3bc	0.034396872
189	0xbccebcac	-0.02523645
190	0x3d867a51	0.06566299
191	0xbce94386	-0.02847458
192	0x3bfc8af0	0.0077069923
193	0xbd05d8cf	-0.032677468
194	0xbcfe4610	-0.031039268
195	0xbca8295a	-0.02052753
196	0xbc216480	-0.009850621
197	0xbd5f31f0	-0.054490983
198	0x3d3ef772	0.0466227
199	0x3d6351aa	0.055497803
200	0x3d81ebba	0.063437894
201	0x3d533a50	0.051569283
202	0xbc8e3ab0	-0.017361969
203	0xbd828505	-0.06373028
204	0x3b907b1c	0.004409207
205	0xbc822bbf	-0.01589
206	0xbd669a7a	-0.056299664
207	0xbc6591c0	-0.0140118
208	0xbd652ca6	-0.055950783
209	0x3c73e508	0.014886148
210	0x3c3c0320	0.011475354
211	0x3c4106f8	0.011781447
212	0x3c5608a0	0.01306358
213	0xbcadac9e	-0.021200474
214	0xbd0ff881	-0.0351491
215	0x3d947c91	0.07250322
216	0xbb164700	-0.0022930503
217	0xbd941d75	-0.07232181
218	0x3c9a2cdc	0.018820219
219	0xbc802068	-0.015640453
220	0xbc7ba2d7	-0.015358648
221	0xbcdb9e1b	-0.026808789
222	0xbd4ccf32	-0.050002284
223	0xbd8b728e	-0.06808959
224	0xbc611aa5	-0.013739263
225	0xbbdc9da8	-0.0067326613
226	0xbd180ffd	-0.037124623
227	0xbbe7d5a4	-0.0070750285
228	0x3d2f85ac	0.04285209
229	0xbd905ffa	-0.07049556
230	0x3d6606a5	0.05615868
231	0xbdb470e9	-0.088105984
232	0x3ca8f522	0.020624701
233	0xbd12e234	-0.035860255
234	0x3c879198	0.016548917
235	0x3c89dcf4	0.016828991
236	0xbc9f3994	-0.019436635
237	0x3cb4bd60	0.022062957
238	0x3d0c5a5f	0.034265872
239	0xbd2c94f2	-0.042134233
240	0x3b17f48c	0.0023186533
241	0xbce80640	-0.028323293
242	0xbd79868b	-0.060919326
243	0xbd359734	-0.04433365
244	0x3cf4e4de	0.029894289
245	0xbbcf397a	-0.0063239904
246	0xbc3a588d	-0.011373651
247	0x3b216930	0.0024629347
248	0xbceb534a	-0.028726239
249	0xbd1c0834	-0.03809376
250	0xbd8c73bc	-0.06858012
251	0x3c0a30f7	0.008434526
252	0x3c8b6dec	0.017020188
253	0xbcd30cd0	-0.025762945
254	0x3d4b94ff	0.04970264
255	0xbaa75cd0	-0.0012768749

fc1.bias f4 [100]
0	0x3defdd05	0.11712078
1	0xbda7bd11	-0.081903584
2	0x3eb1c83a	0.34723073
3	0x3dcb8a93	0.0993854
4	0x3e16caf7	0.14725862
5	0x3e1a8997	0.15091549
6	0x3e54a1e9	0.20764889
7	0x3e5e22a9	0.2169291
8	0x3dd62334	0.10455933
9	0xbc3344fd	-0.010941741
10	0x3dd5b813	0.104355
11	0x3d9065a7	0.07050639
12	0x3e6a148b	0.22859399
13	0x3e365f2c	0.17809743
14	0x3e1d7116	0.1537517
15	0x3e03d40f	0.12873863
16	0x3ecac8bb	0.3960627
17	0x3e6f1043	0.23346047
18	0x3e6aef8b	0.22942941
19	0x3e3a02f3	0.18165188
20	0x3df25138	0.118318975
21	0x3a9219c8	0.00111466
22	0x3d7575a0	0.05992663
23	0x3c820969	0.015873628
24	0x3e1de3fc	0.15419
25	0x3e75929a	0.23981705
26	0x3df295ae	0.118449554
27	0x3e1057ce	0.14095995
28	0x3e254b9b	0.16142122
29	0x3e403f9b	0.18774264
30	0xbda0efd3	-0.07858243
31	0x3e31e172	0.17371157
32	0x3e861da0	0.26194477
33	0x3e2c1d9a	0.16808167
34	0x3e5f5940	0.2181139
35	0x3e550a95	0.20804818
36	0x3e536797	0.20644985
37	0x3e1e56f3	0.15462856
38	0x3e7234de	0.2365298
39	0x3e3b277d	0.18276782
40	0x3e1f6637	0.15566336
41	0x3e4b4037	0.19848715
42	0x3dd9c115	0.106325306
43	0x3e807d56	0.25095624
44	0x3e0b06b8	0.13576782
45	0x3dddbcf2	0.10827054
46	0x3e3e475b	0.18581907
47	0x3e3a7e42	0.18212226
48	0x3e41039e	0.18849036
49	0x3e47b03d	0.19500823
50	0x3e563eac	0.20922345
51	0x3e4be7d5	0.19912656
52	0x3dcb089f	0.09913754
53	0x3e6be16b	0.23035209
54	0x3deeef50	0.11666739
55	0x3e4d3055	0.20037968
56	0x3e11120a	0.14167038
57	0x3e811739	0.2521303
58	0x3e486445	0.195695
59	0x3e1256f1	0.14290978
60	0x3e001ebd	0.12511726
61	0x3e4de3dd	0.20106454
62	0x3e2fe405	0.17176826
63	0x3e3c6701	0.18398668
64	0x3e36d82f	0.17855905
65	0x3e248535	0.1606644
66	0x3e3ba088	0.18322957
67	0x3e260e6c	0.16216439
68	0x3adb90c0	0.0016751513
69	0x3e06417c	0.13110918
70	0x3e38534a	0.18000522
71	0x3e4d4f32	0.20049742
72	0x3e01d277	0.12677942
73	0x3dfd7271	0.123753436
74	0x3e3e62c7	0.18592368
75	0x3e4ef44d	0.20210381
76	0x3e7a460a	0.2444078
77	0x3e49f46c	0.19722146
78	0x3e6afb7b	0.22947495
79	0x3e59bfa3	0.2126451
80	0x3e8709ab	0.26374564
81	0x3e359078	0.17730892
82	0x3e7b9b5b	0.24570982
83	0x3e1078ed	0.1410863
84	0x3e8481b6	0.25880212
85	0x3e0df316	0.13862261
86	0x3e8c199b	0.27363285
87	0x3daa844f	0.08326017
88	0x3e8e12e4	0.27748787
89	0x3e7eafe6	0.24871787
90	0x3e0c369b	0.13692705
91	0x3c4be4da	0.012444699
92	0x3e68793f	0.22702502
93	0x3e5dcbfb	0.21659844
94	0x3e621a9d	0.22080465
95	0x3e6277ba	0.22115985
96	0x3e8a6e23	0.27037153
97	0x3de263e4	0.11054209
98	0x3df400a8	0.11914188
99	0x3e2714d2	0.16316536

fc2.weight f4 [400, 100]
0	0x3bcd650f	0.0062681506
1	0xbd7b1a73	-0.06130452
2	0xbdf1c39b	-0.11804887
3	0x3d8ecb9a	0.06972428
4	0xbdb3fe12	-0.087886944
5	0x3c888e26	0.016669344
6	0xbe8df5cd	-0.27726594
7	0xbd4090a1	-0.04701293
8	0x3dba3716	0.09092538
9	0x3c6ee68f	0.014581337
10	0xbc7251a6	-0.014789974
11	0x3dcf2851	0.101151116
12	0x3da142db	0.0787408
13	0xbdcdc322	-0.10046984
14	0x3c20f2d1	0.009823517
15	0xbc539999	-0.0129150385
16	0xbe3fdd22	-0.18736699
17	0x3d960841	0.07325793
18	0xbd37c5f5	-0.04486652
19	0x3d74c671	0.05975956
20	0xbc7078b5	-0.014677216
21	0xbd958eda	-0.073026374
22	0xbcfb45bf	-0.030672906
23	0xbc83e8be	-0.016102191
24	0xbcec1fb1	-0.028823705
25	0x3dd44d51	0.103663094
26	0x3daf9637	0.08573573
27	0xbdc1f501	-0.09470559
28	0xbd409fdf	-0.047027465
29	0xbcf8b246	-0.030358445
30	0x3d40be12	0.047056265
31	0x3b6f1f26	0.0036487072
32	0xbc148358	-0.009064518
33	0xbbc3461a	-0.0059592845
34	0x3d652c55	0.05595048
35	0xbd945107	-0.07242017
36	0xbdd86b27	-0.10567313
37	0x3dd719eb	0.1050299
38	0xbd54c661	-0.051947
39	0xbd98002d	-0.074219085
40	0x3dce8c75	0.10085384
41	0xbc1dcfb8	-0.009632044
42	0x3bfaa9c3	0.0076496317
43	0xbdb1748e	-0.08664809
44	0x3d6f8a3a	0.058481432
45	0xbd9bba69	-0.07603914
46	0xb9d46c88	-0.00040516653
47	0x3d9ff159	0.07809705
48	0x3c8ab141	0.016930224
49	0xbda9cdf3	-0.08291235
50	0xbdcc8a83	-0.099873565
51	0xbd8b26bb	-0.067944966
52	0x3d2163d7	0.039401855
53	0xbd858068	-0.06518632
54	0x3d881db0	0.066462874
55	0x3cce07ae	0.025150146
56	0x3c2efbe6	0.010680174
57	0x3d702531	0.05862922
58	0x3cb720af	0.022354452
59	0x3d10a0f4	0.035309747
60	0xbd334876	-0.043770276
61	0xbdcef568	-0.10105401
62	0xbdf47c10	-0.119377255
63	0xbdcdf04e	-0.100556
64	0x3d3119e7	0.043237593
65	0xbda27768	-0.07932931
66	0xbc960e67	-0.018317414
67	0xbb4230ac	-0.0029631061
68	0x3cc2974c	0.023753785
69	0xbc07ba2e	-0.008284135
70	0xbd2a92ad	-0.041643787
71	0xbbde8355	-0.0067905583
72	0x3d69f43d	0.05711769
73	0x3ad69635	0.001637167
74	0x3d8114bd	0.06302784
75	0xbd818b41	-0.06325389
76	0x3d78e2e5	0.06076326
77	0x3db35535	0.08756486
78	0x3b0e4078	0.0021705907
79	0xbd1044d8	-0.035221905
80	0x3d87a7e2	0.06623818
81	0xbd8e20cd	-0.0693985
82	0x3d41610d	0.047211695
83	0xbdff239a	-0.12457962
84	0xbdab3c46	-0.083611056
85	0x3dbbf9e7	0.091785245
86	0x3d1d6a4c	0.03843145
87	0x3ddd306d	0.10800252
88	0xbe628c5d	-0.22123857
89	0xbd63a1e9	-0.05557433
90	0xbdb549df	-0.088519804
91	0xbd94ab0a	-0.072591856
92	0x3df9583f	0.12175035
93	0xbddec72b	-0.10877832
94	0xbb18267a	-0.0023216293
95	0x3d829a8d	0.063771345
96	0xbe14f4ce	-0.1454651
97	0xbdc8eced	-0.09810815
98	0xbdcb7be7	-0.09935742
99	0xbd8c0f95	-0.068389095
100	0xbb8af83b	-0.004241017
101	0x3d2455be	0.040120833
102	0xbde2ecc5	-0.110803165
103	0xbdd94e1b	-0.106106006
104	0xbd949f81	-0.072569855
105	0xbda04896	-0.07826345
106	0xbde233de	-0.11045049
107	0xbd4d5697	-0.050131407
108	0x3dcd8c6b	0.10036548
109	0xbd22f3e4	-0.039783373
110	0x3c0ff2f2	0.00878595
111	0x3c2c0428	0.010499038
112	0xbd536534	-0.051610187
113	0xbd8eb624	-0.06968334
114	0x3d467ef6	0.048460923
115	0x3d0a4c4b	0.033764165
116	0xbe2a28bb	-0.166171
117	0xbde4b15b	-0.1116664
118	0x3d9ecfbd	0.07754467
119	0xbd071a10	-0.03298384
120	0x3d84d9e0	0.06486869
121	0xbdb96873	-0.09053125
122	0x3d8933b4	0.06699315
123	0xbd9cc158	-0.07654065
124	0x3d99dffe	0.07513426
125	0x3ca71614	0.02039627
126	0xbd050a50	-0.032480538
127	0x3d13671e	0.035987012
128	0xbcc4c2c0	-0.024018645
129	0x3ce8e1d0	0.028427988
130	0xbc1b88c3	-0.009493056
131	0xbd16f9cc	-0.03685932
132	0xbe1c9104	-0.15289694
133	0xbb956a1e	-0.0045597693
134	0x3d88848f	0.066659085
135	0xbda7ef83	-0.0819998
136	0xbda6c40e	-0.08142863
137	0xbdc8e3b6	-0.098090574
138	0xbe1b0195	-0.15137322
139	0xbd5ee250	-0.054415047
140	0x3ddc388b	0.10752972
141	0xbdb5672d	-0.0885757
142	0xbd8cbd85	-0.068720855
143	0xbd971279	-0.0737657
144	0x3d2be4a2	0.041966088
145	0x3d02ec3d	0.031963576
146	0x3bb8563e	0.0056255152
147	0x3d3d4a80	0.046213627
148	0x3df747af	0.120742194
149	0xbddd477d	-0.10804651
150	0xbe207f56	-0.15673575
151	0xbde37444	-0.1110616
152	0xbdda917a	-0.10672279
153	0xbd82dbde	-0.063895926
154	0x3bb7a914	0.0056048725
155	0xbd360183	-0.044435035
156	0x3b1e9c1a	0.002420193
157	0xbca68152	-0.020325337
158	0xbbcda1df	-0.0062754
159	0x3d9fd8d3	0.07805028
160	0x3db95588	0.09049517
161	0xbdd66e06	-0.10470204
162	0x3df038cd	0.11729584
163	0x3cd89681	0.026438953
164	0xbd0f0ef8	-0.034926385
165	0xbd0dbabe	-0.03460192
166	0xbd8206ac	-0.06348929
167	0xbd830fc2	-0.0639949
168	0xbdd38cd1	-0.10329593
169	0xbd822e6f	-0.06356513
170	0x3e031503	0.12800984
171	0x3bf5c567	0.007500339
172	0x3d846403	0.06464388
173	0xbd9eff7a	-0.07763572
174	0x3cc9c67d	0.02463078
175	0x3dbd1a42	0.09233524
176	0xbce5d007	-0.028053297
177	0x3d316990	0.043313563
178	0xbe0855e9	-0.13314022
179	0xbcaa60ba	-0.020798076
180	0xbc92f8f2	-0.017940972
181	0xbda423c1	-0.08014632
182	0x3d0bb6b1	0.034109775
183	0x3e0370ae	0.12835953
184	0xbe161779	-0.14657392
185	0x3c970a3b	0.018437495
186	0xbc2adee9	-0.0104291225
187	0x3df8d524	0.12150028
188	0xbd3d2abb	-0.04618333
189	0x3d044fab	0.03230254
190	0xbdb73c85	-0.0894709
191	0xbd61fd7f	-0.055173393
192	0x3d8bccac	0.068261474
193	0xbdcaadea	-0.09896453
194	0xbd1ead6e	-0.038739614
195	0x3d92c8bf	0.071671955
196	0x3ba6c78f	0.005089707
197	0xbb967ce4	-0.004592525
198	0xbd8e04c5	-0.069345035
199	0xbdbb40a6	-0.0914319
200	0xbda578f2	-0.08079709
201	0x3d808fde	0.062774405
202	0xbe403e0c	-0.18773669
203	0x3d2d67d6	0.042335354
204	0x3da3a3f5	0.07990257
205	0x3d78e602	0.060766228
206	0xbe3c7749	-0.18404879
207	0xbc201470	-0.009770498
208	0x3e084fa7	0.13311635
209	0xbcd97714	-0.026546039
210	0xbd12b721	-0.035819177
211	0xbd6fdd64	-0.058560744
212	0xbccaa3a3	-0.024736231
213	0xbd90f3b2	-0.07077731
214	0x3da52ff2	0.080657855
215	0xbd83ce61	-0.06435848
216	0xbddec99d	-0.108782984
217	0xbd00671d	-0.031348336
218	0xbc63c51b	-0.013901974
219	0xbd68faff	-0.056879994
220	0xbd97da37	-0.07414668
221	0xbddd2477	-0.10797971
222	0x3d33bd2b	0.043881577
223	0x3d88250e	0.066476926
224	0x3d458645	0.048223753
225	0xbd44da8d	-0.04805999
226	0x3b2105fb	0.0024570215
227	0x3c927da4	0.017882176
228	0xbdc50acc	-0.096212
229	0xbcbb1b32	-0.022840116
230	0xbc37a974	-0.011209834
231	0xbde47008	-0.11154181
232	0x3e39bb98	0.18137968
233	0x3d816799	0.06318588
234	0xbbfd6852	-0.007733383
235	0xbdaef28d	-0.08542357
236	0xbd45a838	-0.04825613
237	0x3d492450	0.049106896
238	0xbda2e771	-0.079543
239	0xbe16e98c	-0.14737529
240	0x3d454386	0.0481601
241	0xbdb2f750	-0.08738577
242	0xbd0f723f	-0.035021063
243	0x3d2f980b	0.04286961
244	0xbde16d9b	-0.11007234
245	0x3d65ce2e	0.05610483
246	0x3db305e5	0.08741359
247	0xbdc6fd29	-0.09716255
248	0x3d4bee85	0.049788017
249	0xbd57813f	-0.052613493
250	0xbda4a6a4	-0.08039597
251	0xbdbde361	-0.09271885
252	0x3da5064a	0.0805784
253	0x3d1f6b55	0.03892072
254	0x3d9518e7	0.0728014
255	0x3c78b37a	0.015179509

fc2.bias f4 [400]
0	0xbdde7041	-0.108612545
1	0xbd5b7931	-0.053582374
2	0xbdc62bb3	-0.09676304
3	0xbd9048d1	-0.070451386
4	0xbe559673	-0.20858173
5	0xbdfb2d8a	-0.12264545
6	0xbd85aeb7	-0.06527465
7	0xbe0bf867	-0.13668977
8	0xbe351233	-0.17682724
9	0xbd30a0f7	-0.043122258
10	0xbdc9c561	-0.098521
11	0xbdfbf60d	-0.1230279
12	0xbe3296bc	-0.17440313
13	0xbce067d7	-0.027393265
14	0xbc9546be	-0.018222209
15	0xbe018cc3	-0.12651353
16	0xbcd617dd	-0.026134426
17	0xbda48e23	-0.08034923
18	0x3d1ebc21	0.038753632
19	0xbd9512e1	-0.072789915
20	0xbe72bb10	-0.23704171
21	0xbdec173a	-0.115278676
22	0xbe02ba7a	-0.12766448
23	0xbe11ecb3	-0.1425045
24	0xbe1f45f3	-0.15554027
25	0xbe066e24	-0.13127953
26	0xbe5611b8	-0.20905197
27	0x3a6d535c	0.0009053254
28	0xbd1c28f9	-0.038125012
29	0xbe38bf27	-0.18041669
30	0x3dc5522c	0.09634814
31	0xbe0f4d5b	-0.13994353
32	0xbd815bd4	-0.06316343
33	0x3c2f0b30	0.01068382
34	0x3dab41fb	0.08362194
35	0xbe01b60c	-0.12667102
36	0xbc2a4769	-0.010393002
37	0x3d4fe103	0.050751697
38	0xbdbeefeb	-0.093231045
39	0xbdcc72fb	-0.09982868
40	0xbdaa89a3	-0.08327033
41	0xbdc35d46	-0.09539275
42	0xbe03e8f5	-0.12881835
43	0xbdb3de92	-0.08782686
44	0xbe0ad758	-0.1355871
45	0xbd2f1a1b	-0.042749505
46	0xbe16d4ac	-0.14729565
47	0xbcdfba03	-0.027310377
48	0xbe6976a1	-0.2279916
49	0xbd903ade	-0.07042478
50	0xbe0acfc3	-0.13555817
51	0xbbbacd05	-0.0057007098
52	0xbded8bff	-0.11598968
53	0xbd134910	-0.03595835
54	0xbe19fbc1	-0.15037443
55	0x3c895552	0.016764317
56	0xbdb5e540	-0.088816166
57	0xbc9b5fed	-0.01896664
58	0xbda07ae7	-0.07835942
59	0xbd65a840	-0.05606866
60	0xbdf6c5e8	-0.12049466
61	0xbd32342c	-0.043506786
62	0xbe0eeb75	-0.13957007
63	0xbcf3e8c1	-0.029774072
64	0x3bc5063f	0.0060127075
65	0xbd88ffe7	-0.066894345
66	0xbd3b7a52	-0.04577095
67	0xbc3b4a1d	-0.011431244
68	0xbc8260d2	-0.015915308
69	0xbdf2c93e	-0.1185479
70	0xbcd672f4	-0.02617786
71	0xbd0b58ed	-0.034020353
72	0xbe30d474	-0.17268544
73	0xbe126162	-0.14294961
74	0xbc96c8b0	-0.018406242
75	0xbca17cf6	-0.019712906
76	0x3b539a2e	0.0032287943
77	0xbdff773f	-0.12473916
78	0xbd50bd62	-0.05096186
79	0xbd6bdb80	-0.05758238
80	0xbcc66415	-0.024217645
81	0xbd7b28bf	-0.061318155
82	0xbccd5bd7	-0.025068207
83	0xbdeadb91	-0.1146766
84	0xbdceb2e2	-0.10092713
85	0x3ad06998	0.001590061
86	0xbd77ba40	-0.060480356
87	0xbde1e234	-0.11029473
88	0xbd1073ad	-0.035266567
89	0xbd4c5b11	-0.049891535
90	0xbbfa73e2	-0.007643209
91	0x3c0375a6	0.008023655
92	0xbdebecec	-0.11519799
93	0xbdf54898	-0.11976737
94	0x3c58868a	0.01321567
95	0xbe331fc6	-0.1749259
96	0xbe04d089	-0.12970175
97	0x3d54c18a	0.051942386
98	0xbcc38894	-0.023868836
99	0xbdb32061	-0.0874641
100	0xbdb9eeff	-0.09078788
101	0xbe0f1d38	-0.1397599
102	0xbd3e377f	-0.046439644
103	0xbe09cf1c	-0.13457912
104	0xbd5740ee	-0.052552156
105	0xbe1cbef0	-0.15307212
106	0xbb1367d8	-0.0022492316
107	0xbe348cfe	-0.17631909
108	0xbbdebf10	-0.006797679
109	0xbdc83a50	-0.09776747
110	0xbd8edf7c	-0.0697622
111	0xbe2594c1	-0.16170026
112	0xbda9e552	-0.082956925
113	0xbdbf7250	-0.09347975
114	0xbde630ac	-0.11239752
115	0xbcab51d5	-0.020913044
116	0xbd7a6d33	-0.061139297
117	0xbccf9954	-0.025341667
118	0xbd448c3a	-0.047985293
119	0xbe01f7a4	-0.12692124
120	0xbd923489	-0.071389265
121	0xbe06ed28	-0.13176405
122	0xbd585ef1	-0.05282492
123	0x3d60b822	0.054863103
124	0xbc8b8d14	-0.017035045
125	0xb9715d66	-0.00023018345
126	0x3c4421ea	0.011970976
127	0xbbaf9caf	-0.0053592543
128	0xbd64ec6b	-0.05588953
129	0xbd345498	-0.044025987
130	0xbe0cca81	-0.13749124
131	0x3c32096f	0.010866507
132	0xbbddcdb7	-0.006768908
133	0xbe161137	-0.14655004
134	0x3cca08df	0.024662433
135	0x3a922aec	0.0011151708
136	0xbdb99b93	-0.090628766
137	0x3da86a24	0.0822337
138	0xbd556463	-0.05209769
139	0xbde89749	-0.1135698
140	0xbde6d48e	-0.1127101
141	0xbd503ba6	-0.050838135
142	0xbe35e72c	-0.17763966
143	0x3cdc2da6	0.026877236
144	0xbd4e1169	-0.050309572
145	0xbd24a7e7	-0.040199187
146	0xbd89e670	-0.067334056
147	0xbbcac030	-0.0061874613
148	0xbdac498c	-0.084124655
149	0x3c8f0d5e	0.017462429
150	0xbd96aa4c	-0.073567
151	0xbdf52ca0	-0.11971402
152	0xbcd45db8	-0.025923595
153	0xbdfab3e3	-0.12241342
154	0xbe331ec6	-0.17492208
155	0xbd615442	-0.055011995
156	0xbce47f1b	-0.02789264
157	0x3d225726	0.039633892
158	0xbd812cd3	-0.06307378
159	0x3da77edd	0.08178494
160	0xbcc78343	-0.024354583
161	0xbd885fd2	-0.06658901
162	0xbe06f2c9	-0.13178553
163	0xbdc71d27	-0.09722357
164	0xbe0020a4	-0.12512451
165	0xbdf46bc3	-0.119346164
166	0xbdb9c93e	-0.09071587
167	0xbda1dea0	-0.079037905
168	0xbd836fa9	-0.06417782
169	0xbc85e5e3	-0.01634497
170	0xbc6faa76	-0.014628043
171	0xbe093d6b	-0.13402335
172	0xbdfc0df7	-0.12307351
173	0x3cf78fa8	0.030219868
174	0xbd2f5df7	-0.04281422
175	0x3c98541f	0.0185948
176	0xbd710e16	-0.058851324
177	0xbde78934	-0.11305466
178	0xbd9a6ac5	-0.07539896
179	0xbdbfa2a0	-0.0935719
180	0xbdd58b9d	-0.1042702
181	0xbdcd4483	-0.10022833
182	0x3d346f2f	0.044051345
183	0xbcdb8d81	-0.026800873
184	0xbe2a3b65	-0.1662422
185	0xbe3bc2c9	-0.18336023
186	0xbd06adb4	-0.0328805
187	0xbd85caf9	-0.065328546
188	0xbd70dd73	-0.05880494
189	0x3b16949e	0.0022976766
190	0xbd2f8e87	-0.042860534
191	0x3d11dcbf	0.03561091
192	0xbdc4273b	-0.09577795
193	0xbd923e7b	-0.071408235
194	0xbdd5fe84	-0.10448936
195	0x3d103ce4	0.03521432
196	0xbdbf61c1	-0.09344817
197	0x3d3a6fd0	0.04551679
198	0xbe0195c4	-0.12654787
199	0x3d79b206	0.060960792
200	0xbdb0cf23	-0.08633258
201	0xbdf12334	-0.117742926
202	0x3cfbdd98	0.030745313
203	0xbd92acbd	-0.071618535
204	0xbde481d2	-0.11157574
205	0x3d026063	0.031830203
206	0xbdf89bc9	-0.12139089
207	0xbde50606	-0.111827895
208	0x3b14c70c	0.002270165
209	0xbe267250	-0.16254544
210	0xbb178492	-0.002311979
211	0x3bd523b1	0.006504499
212	0x3d121489	0.035664115
213	0xbd911ad8	-0.07085198
214	0x3c997138	0.018730745
215	0x3d041542	0.032246836
216	0xbd517f25	-0.051146645
217	0xbe03199c	-0.12802738
218	0x3d79b746	0.0609658
219	0xbd53abc3	-0.051677477
220	0xbd491b7b	-0.049098473
221	0x3d21823a	0.039430834
222	0x3c0f80ed	0.008758766
223	0xbc9f2aa4	-0.019429512
224	0xbe063d40	-0.13109303
225	0xbd1c1b03	-0.038111698
226	0xbc8259b2	-0.01591191
227	0xbd0c32fa	-0.034228303
228	0xbe273226	-0.16327724
229	0x3d21b84c	0.0394824
230	0xbde6640f	-0.112495534
231	0xbe0b31c2	-0.135932
232	0xbdf06cff	-0.11739539
233	0xbe18657c	-0.14882463
234	0xbd8fcdea	-0.07021697
235	0xbe0b44f1	-0.13600518
236	0xbdfb6b62	-0.12276341
237	0x3d8c885f	0.06861948
238	0x3dc8e1e7	0.098087125
239	0xbcdf6c00	-0.027273178
240	0xbd557877	-0.052116837
241	0xbc929121	-0.017891468
242	0x3d10ad79	0.035321686
243	0xbd5c6b6b	-0.05381338
244	0xbccd1471	-0.025034161
245	0xbd81a431	-0.06330145
246	0xbe09c347	-0.13453399
247	0xbce964ef	-0.028490512
248	0xbde3e527	-0.11127692
249	0xbe022d42	-0.12712577
250	0xbe2370a8	-0.15960944
251	0x3c0789ee	0.008272631
252	0xbe11c4bb	-0.14235203
253	0xbe24c05d	-0.16089006
254	0xbe3c099d	-0.18363042
255	0xbdc4f011	-0.096161015
