RL-Ridesharing-master/RL-Ridesharing-master/episode_800_dqn_model_num_cars_2_num_passengers_7_num_episodes_1000_hidden_size_100.pth (torch, 227727 bytes, 4 tensors)

fc1.weight f4 [100, 160]
0.07281957 0.36921448 -0.43457112 -0.32451227 -0.5347485 -0.51204985 -0.48297727 -0.52214104
-0.47014388 -0.5803081 -0.5428442 -0.39814553 -0.47338113 -0.5436439 -0.4045815 -0.3408201
-0.32702512 -0.41387057 -0.30130103 -0.25512722 -0.29880786 -0.1665419 -0.21238251 -0.25827026
-0.22727002 -0.2834534 -0.2714049 -0.21978256 -0.13260394 -0.271437 -0.23361287 -0.243141
-0.20582445 -0.36424324 -0.0999831 -0.1182503 -0.19235843 -0.19583681 -0.1664478 -0.09022711
0.21286568 -0.5496048 -0.5678047 -0.6455561 -0.50537306 -0.4886744 -0.50661534 -0.35593155
-0.3398508 -0.36319253 -0.33657205 -0.26797864 -0.3316103 -0.29774043 -0.26689464 -0.21985444
-0.17623547 -0.1666462 -0.09374969 -0.19228917 -0.019530253 0.18189833 0.34723803 -0.07439951
0.24366775 0.038084503 0.15412654 0.33881298 0.19747816 0.090037085 0.101896554 0.2314408
0.32525358 -0.01562293 0.12767248 0.31079894 -0.051020082 0.18102475 -0.062306847 0.28018802
0.25196815 0.01783025 0.14249033 0.059438255 0.25082254 0.278928 -0.063146465 -0.14052396
0.020700427 0.15221073 -0.009649909 -0.17013286 0.25608844 0.33191326 -0.0711443 0.2717597
-0.120987944 0.10770329 -0.11013175 -0.10887057 -0.012596039 0.034651764 0.22152162 -0.2179632
-0.08089695 -0.0637056 -0.06875244 0.16571951 -0.12293857 -0.286273 0.15995471 -0.06410512
0.152939 0.15418494 -0.21414746 0.025902284 0.22347526 -0.24629009 -0.025142407 0.041388694
-0.21835195 -0.031245353 0.008338942 0.019131314 0.00048866007 -0.08993154 0.270856 -0.09275832
-0.06826928 -0.15575297 -0.23334847 -0.13002516 0.33376965 0.24120168 0.2242752 0.23046146
-0.5083031 -0.34753084 0.051061243 -0.28583398 0.14336391 0.14118746 0.21508741 0.1820127
0.19463061 0.14552432 0.0941062 0.05369344 0.08233817 0.082336895 0.010256209 0.012734375
0.030871835 -0.13076176 -0.030154362 0.055819966 0.20290695 0.1577324 0.27974325 -0.1746522
-0.021245476 -0.087751314 0.05300452 -0.012494403 -0.039212994 0.02174626 -0.033215612 -0.033085383
0.08373977 0.08166822 -0.05112274 -0.030524284 -0.00046831742 -0.028481446 -0.027190857 -0.062779166
-0.024422083 -0.017969552 0.019776754 -0.018832322 -0.03321688 -0.06300685 0.06554716 0.0505429
-0.06722286 -0.03994933 0.07129919 -0.07416002 0.034396872 -0.02523645 0.06566299 -0.02847458
0.0077069923 -0.032677468 -0.031039268 -0.02052753 -0.009850621 -0.054490983 0.0466227 0.055497803
0.063437894 0.051569283 -0.017361969 -0.06373028 0.004409207 -0.01589 -0.056299664 -0.0140118
-0.055950783 0.014886148 0.011475354 0.011781447 0.01306358 -0.021200474 -0.0351491 0.07250322
-0.0022930503 -0.07232181 0.018820219 -0.015640453 -0.015358648 -0.026808789 -0.050002284 -0.06808959
-0.013739263 -0.0067326613 -0.037124623 -0.0070750285 0.04285209 -0.07049556 0.05615868 -0.088105984
0.020624701 -0.035860255 0.016548917 0.016828991 -0.019436635 0.022062957 0.034265872 -0.042134233
0.0023186533 -0.028323293 -0.060919326 -0.04433365 0.029894289 -0.0063239904 -0.011373651 0.0024629347
-0.028726239 -0.03809376 -0.06858012 0.008434526 0.017020188 -0.025762945 0.04970264 -0.0012768749
00000000: 6d22 953d ae09 bd3e 1b80 debe 7926 a6be
00000010: 47e5 08bf b315 03bf cc48 f7be 09ab 05bf
00000020: b3b6 f0be 128f 14bf d6f7 0abf bbd9 cbbe
00000030: 035f f2be 3f2c 0bbf 4e25 cfbe f97f aebe
00000040: d66f a7be d8e6 d3be 2144 9abe 09a0 82be
00000050: 58fd 98be f689 2abe cd7a 59be 003c 84be
00000060: 79b9 68be ce20 91be 95f5 8abe ae0e 61be
00000070: 54c9 07be caf9 8abe 3638 6fbe f4f9 78be
00000080: a5c3 52be 177e babe f1c3 ccbd 372d f2bd
00000090: 9cf9 44be 7289 48be 4b71 2abe fec8 b8bd
000000a0: 76f9 593e e6b2 0cbf a65b 11bf 2a43 25bf
000000b0: 2160 01bf 8833 fabe 8bb1 01bf a93c b6be
000000c0: ed00 aebe 5ff4 b9be 2c53 acbe 7f34 89be
000000d0: d3c8 a9be 6f71 98be 6aa6 88be 8621 61be
000000e0: 1277 34be 4da5 2abe d6ff bfbd 74e7 44be
000000f0: e9fd 9fbc 8e43 3a3e 2fc9 b13e c55e 98bd
00000100: 0a84 793e 7ffe 1b3d 59d3 1d3e e578 ad3e
00000110: b737 4a3e 5d65 b83d 24af d03d d1fe 6c3e
00000120: a387 a63e 51f7 7fbc 93bc 023e 0a21 9f3e
00000130: 6ffa 50bd 8d5e 393e 7735 7fbd ce74 8f3e
00000140: f801 813e bf10 923c fce8 113e 8775 733d
00000150: d06b 803e a7cf 8e3e ef52 81bd 83e5 0fbe
00000160: f193 a93c 21dd 1b3e a71a 1ebc 4f37 2ebe
00000170: 061e 833e 89f0 a93e 1ab4 91bd 1624 8b3e
00000180: 87c8 f7bd 8b93 dc3d c18c e1bd 89f7 debd
00000190: 9e5f 4ebc 02ef 0d3d 90d6 623e bf31 5fbe
000001a0: 4dad a5bd 1578 82bd 14ce 8cbd 60b2 293e
000001b0: 38c7 fbbd 6092 92be 2bcb 233e 8c49 83bd
000001c0: 0b9c 1c3e a8e2 1d3e 7949 5bbe 0731 d43c
000001d0: b3d6 643e 7833 7cbe 73f7 cdbc 3187 293d
000001e0: a797 5fbe 41f6 ffbc 0fa0 083c 46b9 9c3c
000001f0: 6c19 003a 072e b8bd a3ad 8a3e 13f8 bdbd
00000200: c4d0 8bbd b57d 1fbe e7f2 6ebe 5125 05be
00000210: dbe3 aa3e 93fd 763e 66a8 653e 17fe 6b3e
00000220: 2720 02bf 90ef b1be 9825 513d d558 92be
00000230: fdcd 123e 7293 103e e03f 5c3e 8a61 3a3e
00000240: 3f4d 473e 5404 153e c0ba c03d a7ed 5b3d
00000250: eaa0 a83d 3fa0 a83d a909 283c d7a3 503c
00000260: eee6 fc3c 69e6 05be 4806 f7bc 7aa3 643d
00000270: d7c6 4f3e 9a84 213e 823a 8f3e 07d8 32be
00000280: fe0a aebc f6b6 b3bd 441b 593d 53b5 4cbc
00000290: ce9d 20bd 3625 b23c 180d 08bd 8a84 07bd
000002a0: c27f ab3d ab41 a73d 1466 51bd 100e fabc
000002b0: 8088 f5b9 ec51 e9bc 5cbf debc 5d92 80bd
000002c0: d210 c8bc e234 93bc dc02 a23c 3e46 9abc
000002d0: 6c0e 08bd bc09 81bd 973d 863d 1206 4f3d
000002e0: 24ac 89bd e9a1 23bd 4f05 923d 35e1 97bd
000002f0: bce3 0c3d acbc cebc 517a 863d 8643 e9bc
00000300: f08a fc3b cfd8 05bd 1046 febc 5a29 a8bc
00000310: 8064 21bc f031 5fbd 72f7 3e3d aa51 633d
00000320: baeb 813d 503a 533d b03a 8ebc 0585 82bd
00000330: 1c7b 903b bf2b 82bc 7a9a 66bd c091 65bc
00000340: a62c 65bd 08e5 733c 2003 3c3c f806 413c
00000350: a008 563c 9eac adbc 81f8 0fbd 917c 943d
00000360: 0047 16bb 751d 94bd dc2c 9a3c 6820 80bc
00000370: d7a2 7bbc 1b9e dbbc 32cf 4cbd 8e72 8bbd
00000380: a51a 61bc a89d dcbb fd0f 18bd a4d5 e7bb
00000390: ac85 2f3d fa5f 90bd a506 663d e970 b4bd
000003a0: 22f5 a83c 34e2 12bd 9891 873c f4dc 893c
000003b0: 9439 9fbc 60bd b43c 5f5a 0c3d f294 2cbd
000003c0: 8cf4 173b 4006 e8bc 8b86 79bd 3497 35bd
000003d0: dee4 f43c 7a39 cfbb 8d58 3abc 3069 213b
000003e0: 4a53 ebbc 3408 1cbd bc73 8cbd f730 0a3c
000003f0: ec6d 8b3c d00c d3bc ff94 4b3d d05c a7ba

fc1.bias f4 [100]
0.16509907 -0.081903584 0.4557977 0.19014306 0.24627623 0.24354789 0.21761738 0.33255228
0.19164625 -0.012827192 0.2064411 0.1658806 0.31122643 0.30363747 0.20740628 0.26763606
0.5764593 0.34193218 0.32609552 0.2509537 0.22832961 0.00111466 0.22379434 0.015873628
0.286408 0.36166778 0.16166767 0.24520276 0.22587001 0.31054497 -0.0369395 0.26392144
0.3339027 0.23988858 0.34527594 0.25915915 0.26899704 0.23903248 0.27660736 0.3115959
0.2516676 0.33351222 0.24455819 0.3960373 0.24965195 0.19309503 0.26186982 0.27153155
0.20723888 0.35954103 0.3194355 0.29016557 0.21762621 0.365359 0.21213593 0.29759818
0.24303132 0.31252146 0.28090823 0.22857757 0.21303432 0.2865136 0.28381956 0.30729964
0.26386973 0.2832726 0.27947265 0.20845136 0.0016751513 0.25373435 0.24919939 0.2436207
0.23763824 0.22399189 0.26867867 0.31944314 0.35761586 0.29687107 0.30153975 0.3439476
0.38434657 0.2902436 0.33799466 0.2518165 0.42165375 0.23292896 0.39185372 0.119668625
0.40165272 0.33992192 0.22810766 -0.060812242 0.31756318 0.3006276 0.31603944 0.26266006
0.31059232 0.16935928 0.20391978 0.27105233
00000000: bb0f 293e 11bd a7bd 515e e93e ddb4 423e
00000010: d62f 7c3e 9e64 793e 17d7 5e3e 4b44 aa3e
00000020: ea3e 443e 2529 52bc 4c65 533e 9bdc 293e
00000030: 1259 9f3e 5f76 9b3e 5062 543e 9807 893e
00000040: d692 133f bc11 af3e fef5 a63e 017d 803e
00000050: 3dcf 693e c819 923a 582a 653e 6909 823c
00000060: 12a4 923e 852c b93e 368c 253e 6f16 7b3e
00000070: 784a 673e c0ff 9e3e e04d 17bd b620 873e
00000080: 4bf5 aa3e 5aa5 753e 02c8 b03e 82b0 843e
00000090: fbb9 893e eec4 743e 7b9f 8d3e 7f89 9f3e
000000a0: 93da 803e 1dc2 aa3e 766d 7a3e 67c5 ca3e
000000b0: c3a4 7f3e b4ba 453e cd13 863e 2f06 8b3e
000000c0: 6e36 543e c315 b83e 0d8d a33e 9590 943e
000000d0: 68d9 5e3e 5610 bb3e 293a 593e ca5e 983e
000000e0: 34dd 783e d002 a03e 34d3 8f3e 3d10 6a3e
000000f0: ab25 5a3e e9b1 923e cc50 913e 6156 9d3e
00000100: ef19 873e 1b09 913e 0a17 8f3e 4674 553e
00000110: c090 db3a 78e9 813e 202e 7f3e b477 793e
00000120: 7057 733e 215e 653e 4090 893e 0d8e a33e
00000130: 6d19 b73e 7cff 973e 6b63 9a3e e619 b03e
00000140: 13c9 c43e cf9a 943e a30d ad3e 18ee 803e
00000150: 00e3 d73e ee84 6e3e 0da1 c83e d314 f53d
00000160: 6da5 cd3e 3f0a ae3e 0e95 693e 4216 79bd
00000170: a497 a23e dceb 993e eccf a13e 617b 863e
00000180: f505 9f3e 856c 2d3e 59d0 503e 5fc7 8a3e

fc2.weight f4 [400, 100]
0.033772275 -0.06130452 -0.13278943 0.046833877 -0.09931586 0.015281545 -0.31040666 -0.074849345
0.106847115 0.014581337 -0.0020961324 0.09441209 0.09352268 -0.09673647 0.023571348 -0.0022960932
-0.1881005 0.07183223 -0.031054204 0.078543074 -0.008300392 -0.073026374 -0.027704516 -0.016102191
-0.02335135 0.101258576 0.08288577 -0.12316399 -0.06806611 -0.011075855 0.14116643 -0.01978949
0.023055082 0.012628426 0.079725824 -0.079400815 -0.09784716 0.12431063 -0.0632215 -0.07577048
0.111305945 -0.018513035 -0.0030006636 -0.08186742 0.051161356 -0.0664351 0.0018501717 0.09616543
0.010343628 -0.070760176 -0.10089453 -0.078068405 0.030179556 -0.05148928 0.10595274 0.020320358
0.007768108 0.05962205 0.029002259 0.03140722 -0.04668027 -0.11101162 -0.11216414 -0.108348094
0.06583547 -0.090508275 -0.01673992 -0.033405483 0.023753785 -0.0076111928 -0.0648549 -0.007166892
0.06035343 -0.010238642 0.06398373 -0.07529097 0.06966955 0.095007665 -0.005049858 -0.0379628
0.06292676 -0.08521804 0.058615487 -0.14149716 -0.080452144 0.10434846 0.04972586 0.11595449
-0.24411136 -0.04923887 -0.099943265 -0.07682952 0.14076127 -0.14073808 0.0070133647 0.043350786
-0.13509004 -0.11275178 -0.11541703 -0.07446973 -0.024590582 0.040120833 -0.1337605 -0.108113274
-0.06258489 -0.07739634 -0.105435416 -0.03206659 0.13009465 -0.039783373 0.0003674897 0.026823327
-0.066126704 -0.063769855 0.08752392 0.04541564 -0.18010838 -0.09856769 0.09361249 -0.016198175
0.09142429 -0.09053125 0.06726852 -0.07654065 0.031547252 0.020121193 -0.013570412 0.0137090385
-0.045193214 0.046041936 -0.0087260455 -0.016950868 -0.1683616 -0.044267263 0.07715235 -0.14111769
-0.11912997 -0.11531618 -0.15084594 -0.058024775 0.1355627 -0.10831284 -0.067930445 -0.06310314
0.046591047 0.030666241 0.022220915 0.033581365 0.094099104 -0.15366997 -0.16468656 -0.100222476
-0.09534155 -0.075977616 -0.0053083445 -0.03345379 0.014124977 -0.006558577 0.019692976 0.09325133
0.11509295 -0.114930384 0.102182284 0.04047233 -0.046263948 -0.05325498 -0.045536995 -0.08711126
-0.10329593 -0.0367027 0.14787018 -0.02842377 0.103425056 -0.11010962 0.035809707 0.09866518
-0.018617496 0.0589566 -0.13691822 -0.0113583775 -0.012582541 -0.06784835 0.045216512 0.14366566
-0.1399197 0.031862948 -0.0056077265 0.1486696 -0.075378574 0.06350592 -0.09791953 -0.030935802
0.07868578 -0.09824922 -0.055619206 0.06862512 0.0054627336 -0.07130503 -0.060551465 -0.07979484
-0.09714934 0.062774405 -0.17080733 -0.010227436 0.11813946 0.07299445 -0.24662781 -0.0010135883
0.18568447 -0.026546039 -0.027042756 -0.041880384 -0.034662776 -0.058857433 0.09533742 -0.05393451
-0.17252398 -0.024103515 0.027752614 0.0138465725 -0.04411122 -0.10797971 -0.017648682 0.066476926
0.012206293 -0.07104278 0.0024244657 0.023752395 -0.13352305 -0.03690642 0.08480082 -0.18330488
0.14161499 0.027209107 -0.027807249 -0.16686682 -0.046174426 0.08471242 -0.11549802 -0.18923905
0.06073844 -0.12053094 -0.03572674 0.048219968 -0.1098785 0.13350536 0.10285205 -0.066422865
0.015568743 -0.035453383 -0.12738702 -0.092654854 0.12028934 0.089836404 0.16629146 0.02996511
00000000: cc54 0a3d 731a 7bbd f4f9 07be e1d4 3f3d
00000010: 1d66 cbbd 725f 7a3c 9fed 9ebe 9d4a 99bd
00000020: a9d2 da3d 8fe6 6e3c 445f 09bb 205b c13d
00000030: d288 bf3d c51d c6bd b318 c13c 0d7a 16bb
00000040: 6b9d 40be c71c 933d 6365 febc 31db a03d
00000050: 5efe 07bc da8e 95bd 95f4 e2bc bee8 83bc
00000060: 554b bfbc a860 cf3d 04c0 a93d 673d fcbd
00000070: 3f66 8bbd 8177 35bc ef8d 103e 921d a2bc
00000080: 03de bc3c 75e7 4e3c 4b47 a33d e59c a2bd
00000090: 1864 c8bd 9296 fe3d 467a 81bd 8e2d 9bbd
000000a0: 5ff4 e33d a6a8 97bc c8a6 44bb 1baa a7bd
000000b0: 928e 513d 200f 88bd 7681 f23a 62f2 c43d
000000c0: 5278 293c b6ea 90bd cba1 cebd 54e2 9fbd
000000d0: 1e3b f73c 6ce6 52bd c0fd d83d e176 a63c
000000e0: 9d8b fe3b 4036 743d 2596 ed3c dba4 003d
000000f0: d033 3fbd 0f5a e3bd 50b6 e5bd 9be5 ddbd
00000100: bfd4 863d 675c b9bd 2822 89bc 30d4 08bd
00000110: 4c97 c23c 5067 f9bb a5d2 84bd 3fd8 eabb
00000120: 2935 773d fabf 27bc e709 833d 2732 9abd
00000130: e9ae 8e3d 6193 c23d 4779 a5bb e27e 1bbd
00000140: bfdf 803d cc86 aebd cb16 703d a2e4 10be
00000150: 18c4 a4bd a5b4 d53d 58ad 4b3d 8c79 ed3d
00000160: 54f8 79be b3ae 49bd 0eaf ccbd cc58 9dbd
00000170: b923 103e a51d 10be 5ed0 e53b 9890 313d
00000180: 0b55 0abe 68ea e6bd c45f ecbd 9683 98bd
00000190: 3072 c9bc be55 243d 83f8 08be 7e6a ddbd
000001a0: 822c 80bd f981 9ebd 86ee d7bd 4258 03bd
000001b0: 8837 053e e4f3 22bd a2ab c039 98bc db3c
000001c0: 706d 87bd c599 82bd be3f b33d c005 3a3d
000001d0: 556e 38be dbdd c9bd e8b7 bf3d 09b2 84bc
000001e0: a83c bb3d 7368 b9bd 14c4 893d 58c1 9cbd
000001f0: b137 013d 33d5 a43c 6f56 5ebc e09b 603c
00000200: 851c 39bd 7896 3c3d b0f7 0ebc 8cdc 8abc
00000210: fc66 2cbe 9751 35bd 0d02 9e3d 2881 10be
00000220: 6afa f3bd e42a ecbd 5c77 1abe 63ab 6dbd
00000230: f3d0 0a3e 1fd3 ddbd 1e1f 8bbd 383c 81bd
00000240: 41d6 3e3d c537 fb3c a308 b63c 9d8c 093d
00000250: 08b7 c03d a95b 1dbe 98a3 28be 7141 cdbd
00000260: 6e42 c3bd 279a 9bbd 9ff1 adbb d706 09bd
00000270: 736c 673c 55e9 d6bb 2a53 a13c 8efa be3d
00000280: dab5 eb3d 9f60 ebbd f244 d13d 50c6 253d
00000290: 447f 3dbd e521 5abd 0085 3abd 6367 b2bd
000002a0: d18c d3bd 9255 16bd 486b 173e f7d8 e8bc
000002b0: 84d0 d33d 2781 e1bd 33ad 123d f810 ca3d
000002c0: b883 98bc 7a7c 713d 4a34 0cbe 7d18 3abc
000002d0: 0127 4ebc 13f4 8abd f334 393d 171d 133e
000002e0: 1c47 0fbe b982 023d 05c1 b7bb d83c 183e
000002f0: 1560 9abd 640f 823d 098a c8bd 146d fdbc
00000300: 0326 a13d e336 c9bd f7d0 63bd 548b 8c3d
00000310: bb00 b33b 5f08 92bd d004 78bd 7a6b a3bd
00000320: 3cf6 c6bd de8f 803d 1ee8 2ebe fa90 27bc
00000330: 1af3 f13d 1d7e 953d 008c 7cbe 61da 84ba
00000340: 1224 3e3e 1477 d9bc c588 ddbc c48a 2bbd
00000350: 8efa 0dbd 7e14 71bd 4440 c33d 6fea 5cbd
00000360: 20aa 30be bc74 c5bc 7359 e33c bcdc 623c
00000370: f7ad 34bd 7724 ddbd f893 90bc 0e25 883d
00000380: e7fc 473c e17e 91bd c9e3 1e3b 6294 c23c
00000390: 44ba 08be 302b 17bd 0dac ad3d 46b4 3bbe
000003a0: 8503 113e a2e5 de3c 07cc e3bc 23df 2abe
000003b0: 6521 3dbd b57d ad3d 3a8a ecbd e2c7 41be
000003c0: dfc8 783d edd8 f6bd 3456 12bd 4d82 453d
000003d0: fb07 e1bd a1b5 083e 18a4 d23d b608 88bd
000003e0: 0b14 7f3c 9137 11bd be71 02be d4c1 bdbd
000003f0: 425a f63d 26fc b73d 4f48 2a3e 6479 f53c

fc2.bias f4 [400]
-0.21679951 -0.054852847 -0.18180282 -0.13313006 -0.28344348 -0.17117363 -0.08256173 -0.1694985
-0.15810955 -0.07314226 -0.08770839 -0.09482198 -0.17412324 -0.081611864 -0.019238086 -0.15061039
-0.09610364 -0.10337966 0.03663049 -0.08532099 -0.34503454 -0.21030611 -0.15730801 -0.18119629
-0.24158455 -0.13443398 -0.26227856 0.035910383 -0.035949998 -0.17624997 0.03681728 -0.14579666
-0.116645545 -0.0035916602 0.052905835 -0.15851477 -0.058225024 -0.007729593 -0.11471895 -0.11634185
-0.17492816 -0.15965389 -0.1775702 -0.15265873 -0.16368946 -0.09589562 -0.1605066 -0.06496035
-0.29998475 -0.12278066 -0.15875855 0.0067573385 -0.14286841 -0.041922893 -0.13336506 -0.008007508
-0.10146016 -0.027757136 -0.14297646 -0.19113706 -0.24260104 -0.085646965 -0.25456035 -0.1110045
-0.025802048 -0.1394677 -0.09394533 -0.042504545 -0.038966794 -0.078582734 -0.06256222 -0.031293876
-0.22165613 -0.14802791 -0.015031492 -0.02498196 -0.015084672 -0.15144458 -0.035397287 -0.25216496
-0.14141898 -0.10453261 -0.04185672 -0.18211703 -0.10225761 -0.02659988 -0.10804409 -0.15354857
-0.031318456 -0.06762675 0.014119068 -0.013312044 -0.12957872 -0.17050791 -0.011860272 -0.18601726
-0.16701907 0.051357776 -0.05146805 -0.09176147 -0.1741864 -0.13990071 -0.10098937 -0.16531761
-0.04938035 -0.22344548 -0.015930498 -0.17864393 -0.051951293 -0.11772097 -0.10259881 -0.16600996
-0.09301611 -0.07513714 -0.089308485 -0.07230412 -0.06723327 -0.04700048 -0.06790554 -0.13091531
-0.11336081 -0.17162076 -0.15289484 0.030036656 -0.034164954 -0.034498412 0.015721003 -0.017242096
-0.093934655 -0.0059467186 -0.17435336 0.0048986324 -0.04995762 -0.15429161 0.012204219 -0.0127344765
-0.10994107 0.09414695 -0.13539556 -0.117840074 -0.21108077 -0.06817825 -0.2270302 -0.022849848
-0.03211213 -0.04057365 -0.10704551 -0.038112044 -0.09287956 0.0069849277 -0.10562582 -0.15742373
-0.012158775 -0.14911233 -0.13909148 -0.10727872 -0.04915137 -0.0015486593 -0.06750812 0.049715083
-0.106549256 -0.051960908 -0.18643284 -0.11365222 -0.14860629 -0.1641944 -0.09643958 -0.090164505
-0.092968695 -0.017553775 -0.04180186 -0.14310114 -0.16427447 0.011693149 -0.01640639 -0.021167992
-0.06620447 -0.108931154 -0.07708001 -0.0935719 -0.10228188 -0.012023204 -0.012055666 -0.06962766
-0.17466865 -0.23951854 -0.02782572 -0.07575845 -0.09095073 -0.008688529 -0.055906527 0.023370223
-0.11016908 -0.025225531 -0.14922535 0.044847358 -0.083692335 0.019308174 -0.14678314 -0.007760725
-0.0825649 -0.14260903 0.032512996 -0.09458638 -0.11463806 0.0053290427 -0.10011022 -0.122636445
-0.041696966 -0.17591879 -0.03313017 -0.025538292 0.00997124 -0.07455148 0.028325755 0.028234845
-0.04044246 -0.13596629 0.013573356 -0.07825999 -0.099359795 0.024111757 0.059823774 -0.04458894
-0.18956318 -0.07131385 -0.030838285 -0.036668528 -0.1950131 -0.006733979 -0.14071839 -0.13093029
-0.13754453 -0.15793377 -0.05038426 -0.17441212 -0.18471627 0.06539145 -0.04138691 -0.036052953
-0.0331856 -0.05074755 0.009262229 -0.096275076 -0.095132664 -0.100913785 -0.14432582 0.02255103
-0.15065575 -0.15355681 -0.18504901 -0.046054818 -0.15044446 -0.1566324 -0.07629792 -0.1148917
00000000: b100 5ebe 61ad 60bd 852a 3abe 3f53 08be
00000010: 811f 91be 2448 2fbe 2016 a9bd 0491 2dbe
00000020: 78e7 21be 9ccb 95bd 75a0 b3bd 0732 c2bd
00000030: 5d4d 32be 1f24 a7bd 3199 9dbc 9c39 1abe
00000040: fcd1 c4bd b7b8 d3bd da09 163d c5bc aebd
00000050: 5ea8 b0be 7c5a 57be 5a15 21be 858b 39be
00000060: f161 77be 10a9 09be 6049 86be c416 133d
00000070: 4e40 13bd df7a 34be b7cd 163d b84b 15be
00000080: dce3 eebd 0f62 6bbb cab3 583d b251 22be
00000090: 5d7d 6ebd 8748 fdbb c5f1 eabd a344 eebd
000000a0: 5e20 33be 4f7c 23be f6d4 35be 9252 1cbe
000000b0: 369e 27be ec64 c4bd d85b 24be ef09 85bd
000000c0: 9a97 99be 6d74 fbbd 9a91 22be aa6c dd3b
000000d0: 194c 12be 57b7 2bbd da90 08be ec31 03bc
000000e0: 58ca cfbd ef62 e3bc 6c68 12be 6fb9 43be
000000f0: 686c 78be ad67 afbd bc55 82be 5456 e3bd
00000100: d15e d3bc 9fd0 0ebe 6966 c0bd 3f19 2ebd
00000110: a59b 1fbd fcef a0bd 9f20 80bd 022e 00bd
00000120: d3f9 62be a194 17be a646 76bc f8a6 ccbc
00000130: b325 77bc 4a14 1bbe bffc 10bd c41b 81be
00000140: 23d0 10be 3115 d6bd f471 2bbd e37c 3abe
00000150: 706c d1bd fee7 d9bc 3846 ddbd d63b 1dbe
00000160: c847 00bd e57f 8abd aa53 673c c21a 5abc
00000170: 49b0 04be a099 2ebe 9651 42bc 4f7b 3ebe
00000180: 0c07 2bbe 885c 523d 29d0 52bd 70ed bbbd
00000190: eb5d 32be 2242 0fbe 84d3 cebd 0549 29be
000001a0: 0d43 4abd e4ce 64be ad80 82bc 6fee 36be
000001b0: e1ca 54bd b117 f1bd 531f d2bd 84fe 29be
000001c0: 3b7f bebd 80e1 99bd 5ee7 b6bd 2f14 94bd
000001d0: 99b1 89bd 9383 40bd 0f12 8bbd aa0e 06be
000001e0: b629 e8bd 5abd 2fbe 7790 1cbe 6f0f f63c
000001f0: 8df0 0bbd 354e 0dbd 55c9 803c 4c3f 8dbc
00000200: d060 c0bd b1dc c2bb b089 32be b584 a03b
00000210: 5da0 4cbd 9ffe 1dbe 34f4 473c 44a4 50bc
00000220: c928 e1bd 1ed0 c03d 22a5 0abe 2356 f1bd
00000230: 8f25 58be 0aa1 8bbd 9b7a 68be 9b2f bbbc
00000240: 0288 03bd 8e30 26bd ad3a dbbd 601b 1cbd
00000250: a437 bebd d2e1 e43b 5a52 d8bd b033 21be
00000260: 9935 47bc e7b0 18be ff6d 0ebe f2b4 dbbd
00000270: f252 49bd 62fc caba b241 8abd 0ba2 4b3d
00000280: 7f36 dabd f6d4 54bd 40e8 3ebe 7fc2 e8bd
00000290: 3f2c 18be 9422 28be 1d82 c5bd 2ba8 b8bd
000002a0: 5f66 bebd efcc 8fbc 6d38 2bbd 1b89 12be
000002b0: 9137 28be 9f94 3f3c b266 86bc 7f68 adbc
000002c0: 3696 87bd 4c17 dfbd 20dc 9dbd a0a2 bfbd
000002d0: 2a79 d1bd f9fc 44bc 2185 45bc f298 8ebd
000002e0: 57dc 32be 5944 75be c4f2 e3bc 3f27 9bbd
000002f0: 6044 babd 555a 0ebc 3efe 64bd e972 bf3c
00000300: 54a0 e1bd c6a5 cebc 88ce 18be ddb1 373d
00000310: e366 abbd 2d2c 9e3c 524e 16be ae4d febb
00000320: c917 a9bd 1a08 12be 592c 053d 81b6 c1bd
00000330: 5cc7 eabd 409f ae3b 9606 cdbd d128 fbbd
00000340: 70ca 2abd 0e24 34be 80b3 07bd ae35 d1bc
00000350: 695e 233c 72ae 98bd 6a0b e83c c34c e73c
00000360: fea6 25bd bf3a 0bbe c862 5e3c c646 a0bd
00000370: 267d cbbd 0586 c53c c609 753d e4a2 36bd
00000380: da1c 42be ff0c 92bd 92a0 fcbc bd31 16bd
00000390: 84b1 47be b6a8 dcbb 7b18 10be 9712 06be
000003a0: 79d8 0cbe 64b9 21be ba5f 4ebd 1799 32be
000003b0: 4326 3dbe f4eb 853d 5285 29bd 43ac 13bd
000003c0: a0ed 07bd aadc 4fbd 9bc0 173c de2b c5bd
000003d0: ead4 c2bd e3ab cebd 26ca 13be f0bc b83c
000003e0: 8045 1abe ff3d 1dbe 7d7d 3dbe faa3 3cbd
000003f0: 1d0e 1abe 3e64 20be 1542 9cbd 574c ebbd
