RL-Ridesharing-master/RL-Ridesharing-master/episode_200_dqn_model_num_cars_2_num_passengers_7_num_episodes_1000_hidden_size_100.pth (torch, 227727 bytes, 4 tensors)

fc1.weight f4 [100, 160]
0.15141062 0.20712958 0.09313919 0.0402186 -0.008608038 0.029412135 0.014215298 -0.00013836485
-0.03839925 -0.08216865 -0.09049744 -0.049115796 -0.16617137 -0.1882181 -0.11675431 -0.07716322
-0.07826902 -0.15063494 -0.060562 -0.06040446 -0.14163855 -0.031604115 -0.061617922 -0.08521076
-0.09597657 -0.12623647 -0.1461813 -0.06989405 -0.024142537 -0.13608341 -0.116449356 -0.16243394
-0.066204086 -0.19845027 -0.067363665 -0.080549434 -0.14434856 -0.16429263 -0.13803291 -0.02528668
0.0976582 0.003068137 0.007846299 -0.11202805 -0.016700475 -0.066335015 -0.12091848 -0.06164314
-0.0769337 -0.123089656 -0.17640033 -0.09899347 -0.1815357 -0.1421148 -0.14959754 -0.094731696
-0.055431463 -0.11287864 -0.047914453 -0.14503296 0.06747082 0.08163867 0.17937462 0.10086804
0.09213256 0.09750564 0.10783397 0.19485506 0.18382356 0.12508678 0.13475259 0.075167455
0.14486317 0.12417601 0.07474128 0.1699379 0.08825306 0.11829018 0.04227716 0.18113872
0.15586293 0.12404534 0.16279502 0.012492495 0.11002857 0.19093342 0.11099283 0.09517266
0.022895562 0.0457205 0.06329118 -0.08989242 0.16176361 0.035215795 0.013510909 0.18785645
0.13234991 0.0954043 0.047715914 0.02484558 -0.0026579816 -0.03219183 0.11619566 -0.056861617
0.04699563 -0.03499975 0.01570972 0.12022006 0.1042261 0.013396073 0.11029856 0.02809864
0.08344647 0.08839565 -0.0411999 0.01704894 0.07864462 -0.04006341 -0.035572235 0.004348186
0.017387146 0.12160489 0.16659792 0.1278597 0.014912391 0.0009179601 0.020194896 0.055856645
-0.052053593 -0.03582218 0.06408601 -0.07406377 0.23557207 0.14523001 0.096227884 0.13482063
-0.01657011 -0.051572334 -0.016403882 -0.017002199 0.028156519 0.026884057 0.10358237 0.06832643
0.10123092 0.046058916 0.08571586 0.047250032 0.107723035 0.14351405 0.11466642 0.07332759
0.108973205 0.043690044 0.07226286 0.10105605 0.011050956 -0.0074537518 0.16387604 -0.04511942
-0.021245476 -0.087751314 0.05300452 -0.012494403 -0.039212994 0.02174626 -0.033215612 -0.033085383
0.08373977 0.08166822 -0.05112274 -0.030524284 -0.00046831742 -0.028481446 -0.027190857 -0.062779166
-0.024422083 -0.017969552 0.019776754 -0.018832322 -0.03321688 -0.06300685 0.06554716 0.0505429
-0.06722286 -0.03994933 0.07129919 -0.07416002 0.034396872 -0.02523645 0.06566299 -0.02847458
0.0077069923 -0.032677468 -0.031039268 -0.02052753 -0.009850621 -0.054490983 0.0466227 0.055497803
0.063437894 0.051569283 -0.017361969 -0.06373028 0.004409207 -0.01589 -0.056299664 -0.0140118
-0.055950783 0.014886148 0.011475354 0.011781447 0.01306358 -0.021200474 -0.0351491 0.07250322
-0.0022930503 -0.07232181 0.018820219 -0.015640453 -0.015358648 -0.026808789 -0.050002284 -0.06808959
-0.013739263 -0.0067326613 -0.037124623 -0.0070750285 0.04285209 -0.07049556 0.05615868 -0.088105984
0.020624701 -0.035860255 0.016548917 0.016828991 -0.019436635 0.022062957 0.034265872 -0.042134233
0.0023186533 -0.028323293 -0.060919326 -0.04433365 0.029894289 -0.0063239904 -0.011373651 0.0024629347
-0.028726239 -0.03809376 -0.06858012 0.008434526 0.017020188 -0.025762945 0.04970264 -0.0012768749
00000000: 630b 1b3e c719 543e c2bf be3d 42bc 243d
00000010: ba08 0dbc b8f1 f03c 48e7 683c 0816 11b9
00000020: 8848 1dbd 0a48 a8bd b956 b9bd a52d 49bd
00000030: d428 2abe 3fbc 40be e21c efbd c007 9ebd
00000040: 824b a0bd 0c40 1abe dc0f 78bd ab6a 77bd
00000050: b209 11be 5173 01bd 1363 7cbd fb82 aebd
00000060: 5d8f c4bd 2244 01be 8db0 15be 9d24 8fbd
00000070: 92c6 c5bc 7359 0bbe 007d eebd 1555 26be
00000080: 0296 87bd 8c36 4bbe f6f5 89bd 1af7 a4bd
00000090: 1cd0 13be 543c 28be 8058 0dbe 0326 cfbc
000000a0: 0601 c83d cc12 493b c38d 003c f66e e5bd
000000b0: 6fcf 88bc a7da 87bd 1ca4 f7bd 847d 7cbd
000000c0: 6a8f 9dbd 6e16 fcbd 4aa2 34be 17bd cabd
000000d0: 7fe4 39be 8b86 11be 1930 19be b102 c2bd
000000e0: 1a0c 63bd eb2c e7bd f241 44bd 8583 14be
000000f0: 242e 8a3d 2d32 a73d fbad 373e e793 ce3d
00000100: ffaf bc3d 09b1 c73d 0ed8 dc3d 1688 473e
00000110: 3e3c 3c3e c016 003e 95fc 093e 65f1 993d
00000120: 0357 143e fe4f fe3d f511 993d 3304 2e3e
00000130: 05be b43d 1f42 f23d d12a 2d3d 6e7c 393e
00000140: 889a 1f3e 7c0b fe3d bdb3 263e 52ad 4c3c
00000150: a956 e13d 0d84 433e 3550 e33d e2e9 c23d
00000160: 798f bb3c 6b45 3b3d ce9e 813d 8419 b8bd
00000170: 5ca5 253e 703e 103d dc5c 5d3c 715d 403e
00000180: bc86 073e 5463 c33d c371 433d f588 cb3c
00000190: 8831 2ebb 95db 03bd fdf7 ed3d bae7 68bd
000001a0: 7d7e 403d e65b 0fbd acb1 803c ef35 f63d
000001b0: 7e74 d53d 347b 5b3c 36e4 e13d 1e2f e63c
000001c0: fce5 aa3d c708 b53d 3ac1 28bd 38aa 8b3c
000001d0: 6e10 a13d 8819 24bd 31b4 11bd 3a7b 8e3b
000001e0: 7d6f 8e3c fc0b f93d a598 2a3e a7ed 023e
000001f0: 1a53 743c 42a3 703a c46f a53c f0c9 643d
00000200: 2636 55bd 47ba 12bd 873f 833d bfae 97bd
00000210: ce39 713e 2db7 143e 2013 c53d 6b0e 0a3e
00000220: 0abe 87bc 833d 53bd 6f61 86bc 3248 8bbc
00000230: 80a8 e63c f43b dc3c fe22 d43d baee 8b3d
00000240: 2852 cf3d 46a8 3c3d cc8b af3d 4089 413d
00000250: e59d dc3d 59f5 123e 3ad6 ea3d c72c 963d
00000260: 582d df3d 55f4 323d 8dfe 933d 79f6 ce3d
00000270: 120f 353c 9a3e f4bb 1fcf 273e 24cf 38bd
00000280: fe0a aebc f6b6 b3bd 441b 593d 53b5 4cbc
00000290: ce9d 20bd 3625 b23c 180d 08bd 8a84 07bd
000002a0: c27f ab3d ab41 a73d 1466 51bd 100e fabc
000002b0: 8088 f5b9 ec51 e9bc 5cbf debc 5d92 80bd
000002c0: d210 c8bc e234 93bc dc02 a23c 3e46 9abc
000002d0: 6c0e 08bd bc09 81bd 973d 863d 1206 4f3d
000002e0: 24ac 89bd e9a1 23bd 4f05 923d 35e1 97bd
000002f0: bce3 0c3d acbc cebc 517a 863d 8643 e9bc
00000300: f08a fc3b cfd8 05bd 1046 febc 5a29 a8bc
00000310: 8064 21bc f031 5fbd 72f7 3e3d aa51 633d
00000320: baeb 813d 503a 533d b03a 8ebc 0585 82bd
00000330: 1c7b 903b bf2b 82bc 7a9a 66bd c091 65bc
00000340: a62c 65bd 08e5 733c 2003 3c3c f806 413c
00000350: a008 563c 9eac adbc 81f8 0fbd 917c 943d
00000360: 0047 16bb 751d 94bd dc2c 9a3c 6820 80bc
00000370: d7a2 7bbc 1b9e dbbc 32cf 4cbd 8e72 8bbd
00000380: a51a 61bc a89d dcbb fd0f 18bd a4d5 e7bb
00000390: ac85 2f3d fa5f 90bd a506 663d e970 b4bd
000003a0: 22f5 a83c 34e2 12bd 9891 873c f4dc 893c
000003b0: 9439 9fbc 60bd b43c 5f5a 0c3d f294 2cbd
000003c0: 8cf4 173b 4006 e8bc 8b86 79bd 3497 35bd
000003d0: dee4 f43c 7a39 cfbb 8d58 3abc 3069 213b
000003e0: 4a53 ebbc 3408 1cbd bc73 8cbd f730 0a3c
000003f0: ec6d 8b3c d00c d3bc ff94 4b3d d05c a7ba

fc1.bias f4 [100]
0.049891684 -0.081903584 0.17877582 0.045198664 0.05216343 0.0688807 0.11136807 0.14978915
0.04317064 -0.010941741 0.041801177 0.016115848 0.16955076 0.081502914 0.09621297 0.028093705
0.2231096 0.14746474 0.15285136 0.12472259 0.0390339 0.00111466 -0.023684917 0.015873628
0.087320924 0.13533032 0.08012494 0.03524594 0.09255709 0.10990459 -0.07858243 0.07946084
0.1001191 0.13939185 0.12969573 0.17132175 0.15135853 0.08259099 0.1304892 0.054273885
0.103267945 0.12451249 0.048456043 0.15430503 0.058821864 0.029536316 0.108466335 0.07100778
0.15480866 0.10371456 0.14455047 0.1388738 0.028941324 0.13913672 0.04333458 0.11770076
0.05976309 0.16823679 0.11173031 0.06375409 0.065666355 0.15035242 0.07236325 0.09129206
0.12578808 0.080467634 0.113339275 0.015949557 0.005669987 0.048405036 0.11193301 0.1436949
0.058590863 0.076400146 0.12492732 0.11965267 0.14132021 0.123179376 0.16207315 0.11299003
0.1788888 0.106528625 0.16557598 0.049616717 0.15237604 0.053675998 0.12103028 0.031190977
0.17709287 0.17594297 0.0681384 0.05389395 0.1558813 0.1530365 0.14885645 0.114828974
0.05106949 0.0751918 0.05404109 0.08773551
00000000: 395b 4c3d 11bd a7bd 0211 373e 3c22 393d
00000010: 52a9 553d 5311 8d3d f114 e43d 5462 193e
00000020: b2d3 303d fd44 33bc b637 2b3d 6205 843c
00000030: b79e 2d3e 00eb a63d 4e0b c53d c524 e63c
00000040: d876 643e ff00 173e 1185 1c3e 8f6e ff3d
00000050: 03e2 1f3d c819 923a df06 c2bc 6909 823c
00000060: 50d5 b23d 0894 0a3e 8b18 a43d 0c5e 103d
00000070: 928e bd3d a815 e13d d3ef a0bd 5dbc a23d
00000080: 3e0b cd3d bdbc 0e3e f5ce 043e f86e 2f3e
00000090: bbfd 1a3e 7725 a93d f69e 053e 4b4e 5e3d
000000a0: 257e d33d 6800 ff3d d879 463d 2302 1e3e
000000b0: 32ef 703d 25f6 f13c 9923 de3d 876c 913d
000000c0: 2986 1e3e 4d68 d43d 0a05 143e ef34 0e3e
000000d0: 5b16 ed3c db79 0e3e 9a7f 313d 190d f13d
000000e0: 24ca 743d 4446 2c3e dcd2 e43d 8191 823d
000000f0: 157c 863d fcf5 193e 2f33 943d 55f7 ba3d
00000100: 97ce 003e 37cc a43d 6c1e e83d a5a8 823c
00000110: 4ccb b93b 5c44 463d 223d e53d c224 133e
00000120: f9fc 6f3d ae77 9c3d e5d9 ff3d 760c f53d
00000130: 3fb6 103e 7845 fc3d 81f6 253e 5167 e73d
00000140: a02e 373e ae2b da3d c08c 293e e63a 4b3d
00000150: 7708 1c3e 5ddb 5b3d b9de f73d 3884 ff3c
00000160: d557 353e 652a 343e 258c 8b3d e7bf 5c3d
00000170: 599f 1f3e 9ab5 1c3e d36d 183e 742b eb3d
00000180: 3e2e 513d 29fe 993d 315a 5d3d adae b33d

fc2.weight f4 [400, 100]
0.011649829 -0.06130452 -0.103537254 0.07884275 -0.081797384 0.014485672 -0.19014831 -0.040289268
0.056613084 0.014581337 -0.019637289 0.08592992 0.06749249 -0.10472393 -0.010403558 -0.024447534
-0.12343545 0.080956504 -0.057916943 0.045782268 -0.011417747 -0.073026374 -0.04543317 -0.016102191
-0.016698655 0.090283066 0.052012328 -0.08503303 -0.0494484 -0.04010391 0.047056265 0.027984293
0.069908805 -0.006718334 0.041057073 -0.06664442 -0.100859925 0.07765708 -0.029587226 -0.06298971
0.07912525 -0.012271893 0.016488262 -0.07585912 0.061314024 -0.08077962 -0.009442132 0.08729146
-0.0012494194 -0.054416344 -0.074194364 -0.074469455 0.04108065 -0.063750826 0.06979872 0.0033242367
0.0069566267 0.071655564 0.005597981 0.006766895 -0.0563201 -0.10068725 -0.11006499 -0.08948161
0.04420123 -0.07534422 -0.01847593 0.042852443 0.033383306 -0.02583321 -0.03369896 -0.022273693
0.06784827 0.0054604816 0.04503814 -0.057815615 0.06274405 0.07653262 0.005387089 -0.04161115
0.05261816 -0.0716675 0.039349973 -0.1068127 -0.09528944 0.08067523 0.020607403 0.08030278
-0.17695966 -0.06067983 -0.09360253 -0.08021711 0.10097536 -0.09657745 -0.019170612 0.06453694
-0.04716548 -0.09281138 -0.09675873 -0.071288124 0.0034988432 0.040120833 -0.06741688 -0.082578145
-0.07163962 -0.07393718 -0.09630887 -0.041216373 0.057544753 -0.039783373 0.011979235 0.0098929545
-0.060532905 -0.0741736 0.027069837 0.008296264 -0.14913474 -0.10707144 0.06614437 -0.045146476
0.057800967 -0.09053125 -0.029187785 -0.07654065 0.08197544 -0.0054542297 -0.03297152 0.029468242
-0.017918658 0.036777675 -0.009493056 -0.0155804 -0.14077686 0.010529678 0.04700326 -0.07187404
-0.07585695 -0.10193107 -0.18057813 -0.040812194 0.08826 -0.07499655 -0.054243006 -0.07304435
0.034780946 0.041210476 0.0035014364 0.06597075 0.10650942 -0.0505136 -0.13006933 -0.10107977
-0.11226722 -0.071675874 0.012791257 -0.056633756 -0.017921867 0.00093418756 -0.033119153 0.080852546
0.07635412 -0.08974003 0.13532002 0.0074866563 -0.03821606 -0.028710043 -0.06529566 0.031545408
-0.10329593 -0.07843099 0.1238064 9.243633e-05 0.055424374 -0.06380684 0.01874979 0.075643055
0.0076873614 0.029973373 -0.11845076 -0.015330434 -0.027056726 -0.082554005 0.04114344 0.13389295
-0.14615281 0.017700415 -0.013873528 0.09898548 0.0036221626 0.019833345 -0.07395943 -0.07978985
0.056581624 -0.0950753 -0.050754685 0.07762157 0.07644624 0.008603132 -0.06895989 -0.08709983
-0.050962567 0.062774405 -0.18657692 0.07321969 0.06039644 0.04567976 -0.18833473 -0.0035139928
0.10498826 -0.026546039 -0.039179027 -0.05285617 -0.028792504 -0.08017847 0.0736459 -0.08833233
-0.13810185 -0.028667234 -0.04543368 -0.08354727 -0.093030155 -0.10797971 0.05879896 0.066476926
0.06679064 -0.06081144 0.020174917 0.047829285 -0.08834232 -0.020187952 -0.011209834 -0.049020324
0.1484026 0.07399625 -0.010039294 -0.060026806 -0.03480968 0.022883814 -0.099259585 -0.120765395
0.042486686 -0.07937293 -0.0290264 0.03234041 -0.11561369 0.053509697 0.074802235 -0.06453883
0.06613104 -0.047727987 -0.05157574 -0.09605678 0.06973446 0.01555603 0.045370504 0.002463541
00000000: edde 3e3c 731a 7bbd 570b d4bd 4f78 a13d
00000010: 6385 a7bd 5055 6d3c 3db6 42be 5c06 25bd
00000020: 1fe3 673d 8fe6 6e3c 61de a0bc 07fc af3d
00000030: 8139 8a3d 8079 d6bd af73 2abc 3246 c8bc
00000040: bacb fcbd 86cc a53d 513a 6dbd 3086 3b3d
00000050: 8011 3bbc da8e 95bd 2218 3abd bee8 83bc
00000060: 9ecb 88bc 54e6 b83d e10a 553d cc25 aebd
00000070: 688a 4abd ff43 24bd 12be 403d 513f e53c
00000080: 592c 8f3d 7825 dcbb 762b 283d df7c 88bd
00000090: a68f cebd ad0a 9f3d e960 f2bc c000 81bd
000000a0: 6b0c a23d 0d10 49bc 6412 873c 075c 9bbd
000000b0: 6a24 7b3d c96f a5bd 2cb3 1abc ddc5 b23d
000000c0: 8fc3 a3ba ace3 5ebd 37f3 97bd 7183 98bd
000000d0: 2f44 283d cb8f 82bd a2f2 8e3d 70db 593b
000000e0: 6af4 e33b 27c0 923d 456f b73b d4bc dd3b
000000f0: e8af 66bd 1e35 cebd c169 e1bd 2242 b7bd
00000100: 590c 353d 124e 9abd d55a 97bc 0b86 2f3d
00000110: efbc 083d 2ba0 d3bc ec07 0abd 5277 b6bc
00000120: 09f4 8a3d d7ed b23b ea79 383d 11d0 6cbd
00000130: f47f 803d 22bd 9c3d 2e86 b03b 7470 2abd
00000140: 2486 573d 69c6 92bd 702d 213d 9ec0 dabd
00000150: 1c27 c3bd 0e39 a53d dbd0 a83c c975 a43d
00000160: ea34 35be 6a8b 78bd afb2 bfbd de48 a4bd
00000170: 2bcc ce3d 66ca c5bd b00b 9dbc f12b 843d
00000180: 9730 41bd e513 bebd 7129 c6bd 82ff 91bd
00000190: d94c 653b be55 243d dc11 8abd bb1e a9bd
000001a0: cbb7 92bd 606c 97bd 963d c5bd 80d2 28bd
000001b0: 0cb4 6b3d e4f3 22bd 8e44 443c 0f16 223c
000001c0: 5af1 77bd 54e8 97bd 90c1 dd3c 0eed 073c
000001d0: c7b6 18be 4548 dbbd b376 873d 83eb 38bd
000001e0: b5c0 6c3d 7368 b9bd 391b efbc 58c1 9cbd
000001f0: bde2 a73d 65b9 b2bb 250d 07bd 6267 f13c
00000200: 26ca 92bc 30a4 163d c388 1bbc ef44 7fbc
00000210: cf27 10be ac84 2c3c 7e86 403d b232 93bd
00000220: e35a 9bbd 3dc1 d0bd 79e9 38be b02a 27bd
00000230: a9c1 b43d cb97 99bd ea2d 5ebd 4798 95bd
00000240: 7776 0e3d 51cc 283d 5b78 653b ac1b 873d
00000250: 9c21 da3d 59e7 4ebd e530 05be e902 cfbd
00000260: 5bec e5bd cdca 92bd 6c92 513c ccf8 67bd
00000270: e1d0 92bc 44e4 743a f3a7 07bd 0596 a53d
00000280: 8d5f 9c3d 9fc9 b7bd 5591 0a3e a052 f53b
00000290: 7188 1cbd 5331 ebbc bbb9 85bd c235 013d
000002a0: d18c d3bd 6da0 a0bd 368e fd3d 60da c138
000002b0: ab04 633d 29ad 82bd 2999 993c bfea 9a3d
000002c0: 43e6 fb3b b88a f53c 5096 f2bd 802c 7bbc
000002d0: 11a6 ddbc 1312 a9bd 0686 283d 3c1b 093e
000002e0: 15a9 15be 7600 913c cb4d 63bc e6b8 ca3d
000002f0: ce61 6d3b 8a79 a23c 0b78 97bd dc68 a3bd
00000300: 22c2 673d d7b6 c2bd 25e4 4fbd 0ff8 9e3d
00000310: d98f 9c3d 27f4 0c3c d83a 8dbd 6561 b2bd
00000320: 20be 50bd de8f 803d 050e 3fbe 34f4 953d
00000330: 4262 773d b31a 3b3d d2da 40be 044b 66bb
00000340: 1604 d73d 1477 d9bc 307a 20bd b67f 58bd
00000350: 42de ebbc 9c34 a4bd a9d3 963d 95e7 b4bd
00000360: 926a 0dbe 8cd7 eabc ab18 3abd d51a abbd
00000370: 9886 bebd 7724 ddbd 2ed7 703d 0e25 883d
00000380: 88c9 883d 6b15 79bd de45 a53c a4e8 433d
00000390: d1ec b4bd 3461 a5bc 74a9 37bc 89c9 48bd
000003a0: daf6 173e 598b 973d da7b 24bc abde 75bd
000003b0: 9894 0ebd d676 bb3c 9c48 cbbd d953 f7bd
000003c0: 8506 2e3d 468e a2bd c6c8 edbc 6177 043d
000003d0: dfc6 ecbd fc2c 5b3d ea31 993d ef2c 84bd
000003e0: b66f 873d 6c7e 43bd 1541 53bd 6bb9 c4bd
000003f0: f1d0 8e3d b8de 7e3c 6cd6 393d 5c73 213b

fc2.bias f4 [400]
-0.015902068 -0.020448407 -0.05834296 -0.0046427427 -0.13604459 -0.093985304 -0.052164353 -0.05897721
-0.13403751 -0.039187793 -0.075151786 -0.10979102 -0.115199365 0.03122 0.010366338 -0.12511489
-0.0012019629 -0.07077683 0.04669409 0.01699426 -0.16813953 -0.052278727 -0.14025581 -0.13650309
-0.08877603 -0.09971503 -0.12928072 -0.009230693 -0.018052297 -0.12702638 0.091350004 -0.10652572
-0.0011324226 0.02266952 0.0810826 -0.093126714 0.023963675 0.06433843 -0.020557271 -0.09982868
0.010820451 -0.04858052 -0.07805417 -0.08622806 -0.085951075 -0.013806865 -0.103156835 0.0051306845
-0.18703395 -0.038208187 -0.13037215 0.026032407 -0.040573396 -0.0322539 -0.03711146 0.021752909
-0.05676558 -0.000724085 -0.07390451 -0.05606866 -0.05029196 0.006780195 -0.06052531 0.041750826
0.00010369142 -0.0033576842 -0.059817 0.002850795 -0.025424806 -0.06678259 0.0064576156 -0.006090074
-0.1575849 -0.13243376 -0.024992459 0.033212923 0.014548721 -0.08632786 -0.069939114 -0.05758238
0.015754733 -0.044052266 0.01758812 -0.066931285 -0.1084618 0.02994289 -0.015195988 -0.11239389
-0.0028133322 -0.005075573 0.031410266 0.037986383 -0.10519495 -0.11896459 0.05586095 -0.122717276
-0.11416409 0.051942386 -0.023868836 -0.0803265 -0.052969366 -0.12585792 0.009870663 -0.1070519
-0.060413703 -0.1237376 0.045045733 -0.15175155 0.008315893 -0.05186096 -0.044375286 -0.1454225
-0.052857988 -0.09860182 -0.10705668 -0.030694468 -0.051954877 -0.019706544 -0.030710127 -0.12134989
-0.09581609 -0.15224251 -0.08676874 0.08360826 -0.0027875807 0.026611594 0.014464874 0.032253813
0.0015829949 -0.029842207 -0.113858186 0.02381139 0.0056836195 -0.12301261 0.016980309 0.023615932
-0.06116031 0.074668206 -0.05209769 -0.0918747 -0.1297712 -0.040476568 -0.1239683 0.03996506
-0.05941397 -0.05910549 -0.028380653 0.008256548 -0.059212126 0.045542754 -0.076550685 -0.08780266
-0.0075668986 -0.10246097 -0.17311913 -0.021187222 -0.005877127 0.039633892 -0.03509538 0.08178494
-0.05506872 -0.082045235 -0.10175197 -0.08601548 -0.10110618 -0.08743266 -0.0772308 -0.045353454
-0.029415002 0.0407656 0.0047239847 -0.08536664 -0.07495609 0.04101816 -0.023329634 0.069632016
-0.012874976 -0.0927679 -0.057714414 -0.0935719 -0.12729785 -0.0871758 0.06130407 0.0039002835
-0.13206777 -0.13001096 -0.037253655 -0.04994872 -0.03014998 -0.0065802615 -0.024210928 0.033285838
-0.0888188 -0.050392102 -0.078734346 0.048579045 -0.014222406 0.06572593 -0.09865093 0.060960792
-0.12734082 -0.14002575 0.020108873 -0.067571744 -0.12424644 0.05406626 -0.09127517 -0.084138215
0.023950774 -0.12860721 0.022741362 0.0021907252 -0.023430008 -0.063468166 0.033007123 0.06992685
-0.02349136 -0.10062588 0.0609658 -0.051677477 -0.11275145 0.029913658 -0.01773497 0.021784453
-0.123667404 -0.0066682734 0.007813261 -0.024208782 -0.13095789 -0.037120514 -0.07649481 -0.115710855
-0.1222149 -0.11850604 -0.016558245 -0.04535802 -0.09543199 0.08570445 0.098087125 -0.027273178
-0.08896765 -0.006415282 0.051366806 -0.01684704 0.012182667 -0.020302324 -0.10870991 0.02004426
-0.05765429 -0.08555301 -0.13383743 0.023019986 -0.107028425 -0.15651304 -0.11353296 -0.07493899
00000000: 0e45 82bc 6b83 a7bc 07f9 6ebd 2622 98bb
00000010: 464f 0bbe 5e7b c0bd 4aaa 55bd 1692 71bd
00000020: 2141 09be 6183 20bd 2ee9 99bd 1dda e0bd
00000030: a5ed ebbd 16c1 ff3c 93d7 293c 1e1e 00be
00000040: 2f8b 9dba 71f3 90bd 4d42 3f3d 8c37 8b3c
00000050: c52c 2cbe 3822 56bd 389f 0fbe 77c7 0bbe
00000060: 35d0 b5bd 6537 ccbd 2a62 04be 553c 17bc
00000070: 69e2 93bc 3413 02be b615 bb3d 282a dabd
00000080: cc6d 94ba 6eb5 b93c a20e a63d 38b9 bebd
00000090: 784f c43c dec3 833d b967 a8bc fb72 ccbd
000000a0: 4348 313c 5efc 46bd ddda 9fbd 5698 b0bd
000000b0: 1e07 b0bd 3036 62bc e443 d3bd 4d1f a83b
000000c0: d485 3fbe 3080 1cbd 4780 05be ea41 d53c
000000d0: 4a30 26bd aa1c 04bd 3002 18bd 2833 b23c
000000e0: 0683 68bd 86d0 3dba 3f5b 97bd 40a8 65bd
000000f0: f1fe 4dbd 662c de3b 63e9 77bd ea02 2b3d
00000100: e874 d938 980c 5cbb ac02 75bd 67d4 3a3b
00000110: af47 d0bc 4fc5 88bd 689a d33b 3e8f c7bb
00000120: f05d 21be b79c 07be fcbc ccbc 460a 083d
00000130: c25d 6e3c a9cc b0bd 3d3c 8fbd 80db 6bbd
00000140: 1210 813c 2670 34bd f614 903c 4513 89bd
00000150: 3821 debd cb4a f53c 98f8 78bc c52e e6bd
00000160: e25f 38bb fe50 a6bb 0da8 003d 9c97 1b3d
00000170: 7370 d7bd b5a3 f3bd 74ce 643d 3253 fbbd
00000180: ddce e9bd 8ac1 543d 9488 c3bc 3882 a4bd
00000190: 68f6 58bd e6e0 00be 90b8 213c 073e dbbd
000001a0: 5c74 77bd 246a fdbd e081 383d c264 1bbe
000001b0: 623f 083c 286c 54bd dcc2 35bd a3e9 14be
000001c0: 9e81 58bd c0ef c9bd 8840 dbbd f772 fbbc
000001d0: a3ce 54bd 9e6f a1bc ce93 fbbc 4b86 f8bd
000001e0: 3a3b c4bd 76e5 1bbe cfb3 b1bd cf3a ab3d
000001f0: d8af 36bb 8f00 da3c 14fe 6c3c 931c 043d
00000200: 7f7c cf3a a577 f4bc 7b2e e9bd 1b10 c33c
00000210: a83d ba3b 09ee fbbd 4a1a 8b3c 3376 c13c
00000220: 3c83 7abd a5eb 983d 6364 55bd cd28 bcbd
00000230: bee2 04be c2ca 25bd 18e3 fdbd 67b2 233d
00000240: 105c 73bd 9918 72bd 8b7e e8bc 7946 073c
00000250: 6a88 72bd 0a8b 3a3d 9bc6 9cbd e2d1 b3bd
00000260: bff3 f7bb 0fd7 d1bd 2446 31be d390 adbc
00000270: ea94 c0bb 2657 223d 2cc0 0fbd dd7e a73d
00000280: bd8f 61bd 5507 a8bd 5663 d0bd e228 b0bd
00000290: c210 cfbd e50f b3bd 2f2b 9ebd 8bc4 39bd
000002a0: bbf7 f0bc d4f9 263d a8cb 9a3b b4d4 aebd
000002b0: 9482 99bd a802 283d ca1d bfbc 3b9b 8e3d
000002c0: 90f1 52bc 19fd bdbd f365 6cbd a0a2 bfbd
000002d0: 5e5a 02be 3a89 b2bd fa19 7b3d e69b 7f3b
000002e0: c63c 07be 9821 05be 4a97 18bd 0797 4cbd
000002f0: 17fd f6bc 3c9f d7bb ff55 c6bc bb56 083d
00000300: a2e6 b5bd f367 4ebd 793f a1bd d2fa 463d
00000310: 1805 69bc 519b 863d 8009 cabd 06b2 793d
00000320: a265 02be e962 0fbe 5dbb a43c 0e63 8abd
00000330: eb74 febd 9574 5d3d 7aee babd a850 acbd
00000340: 6a34 c43c 9cb1 03be 184c ba3c 4592 0f3b
00000350: 4af0 bfbc 99fb 81bd 7a32 073d cf35 8f3d
00000360: f470 c0bc f114 cebd 46b7 793d c3ab 53bd
00000370: 3bea e6bd 7d0d f53c ee48 91bc 4f75 b23c
00000380: 5645 fdbd 8881 dabb 3103 003c 7f51 c6bc
00000390: d319 06be ae0b 18bd 50a9 9cbd d0f9 ecbd
000003a0: ce4b fabd 4bb3 f2bd 28a5 87bc 55c9 39bd
000003b0: d971 c3bd d185 af3d e7e1 c83d 006c dfbc
000003c0: ac34 b6bd 4937 d2bb 0066 523d ce02 8abc
000003d0: cf99 473c 0f51 a6bc 4da3 debd dc33 a43c
000003e0: e826 6cbd 6b36 afbd ae0c 09be 6994 bc3c
000003f0: b831 dbbd f444 20be f883 e8bd 9d79 99bd
